android/app/src/main/assets/landmark_keypoint_classifier_16indexv3.tflite (tflite, 9720 bytes, 6 tensors)

sequential/dense_2/MatMul f4 [16, 32]
000000 0c 3b 03 bf aa 2c e2 3e 0c d2 3b 3e 86 86 9c bd
       -0.51261973 0.441747 0.18341845 -0.07642846
000010 87 b4 d3 3c 84 53 46 be 86 4e 03 3f a5 b3 92 bc
       0.025842918 -0.19367796 0.5129169 -0.017907927
000020 ee c6 b0 3e 48 1e 30 be 40 b4 4f be 09 cd 72 be
       0.3452677 -0.17199051 -0.20283604 -0.23711027
000030 ff 01 b1 be cf 04 0d bf 92 f6 5a be 81 60 df 3e
       -0.34571835 -0.5508546 -0.21383122 0.43628314
000040 08 bc b5 3e 6f bf bb be a4 53 5c be 0d f5 85 be
       0.3549502 -0.3666949 -0.21516281 -0.2616352
000050 53 e2 f4 bd 8f 0a 9a be f0 7d 58 3e df b0 37 be
       -0.119572304 -0.3008618 0.21141791 -0.17938565
000060 41 d7 f7 be 0e 2b 0c bf ce a3 d3 bd 51 0e 8c 3e
       -0.48406413 -0.54753196 -0.10333978 0.27354673
000070 0c 69 ba bd 84 cc fd be a7 1b a6 bd a5 1c cf 3d
       -0.09102067 -0.49570096 -0.08110743 0.101128854
000080 cd f5 b6 be f5 99 a4 be 60 76 fd be 11 4c 0d 3f
       -0.35734406 -0.3214871 -0.49504375 0.55194193
000090 a2 9c 25 3d b9 52 2e bd 7b ee d4 be f8 24 02 3f
       0.04043258 -0.04255936 -0.41588196 0.5083766
0000a0 01 b3 3b 3e 82 99 3f 3e dd 43 97 be eb 61 2d 3f
       0.18330003 0.18710902 -0.29543963 0.67727536
0000b0 7b f4 be be d0 a8 1d 3e ec 03 c8 bd 24 ec 39 be
       -0.372959 0.15396428 -0.09766373 -0.18156487
0000c0 22 4d 9e 3e 29 d8 f3 be 6c 99 5a bd 39 06 b0 be
       0.30918223 -0.47625855 -0.05336897 -0.34379748
0000d0 81 fa fb bd b2 e6 a6 ba 29 33 87 be 2a 23 91 be
       -0.12303639 -0.0012733547 -0.2640622 -0.2834714
0000e0 48 31 b1 be 50 9b e8 3d c6 a4 32 3e b0 35 2e be
       -0.3460791 0.113577485 0.17445669 -0.17012668
0000f0 5e 88 b0 3d 0f 22 8d be 5b 88 50 3c bd 60 39 be
       0.0861976 -0.27565047 0.012727822 -0.18103309
000100 74 97 80 be 7a 70 01 be 7c fa aa 3e 30 df f6 3e
       -0.2511555 -0.12640563 0.3339423 0.48217154
000110 f5 81 c3 be fd b3 b0 3d d6 a2 a3 3e ec e4 2c bf
       -0.38185087 0.0862808 0.3196017 -0.6753681
000120 93 db ef bd 38 a4 46 be 90 ff c7 3e 7a 6d 03 be
       -0.11711802 -0.19398582 0.39062166 -0.1283473
000130 ff d6 a8 be 64 91 bc be bc fe ce be 1f 62 a6 bd
       -0.3297653 -0.36829674 -0.40428722 -0.08124184
000140 e8 d7 af 3e 6c 70 73 3e db b1 20 be 73 fa eb 3d
       0.3434441 0.23773354 -0.15692846 0.11522379
000150 c1 f8 e2 bd 7d 87 8a 3d 00 9b 90 3e 47 d6 ff be
       -0.11082602 0.067641236 0.28243256 -0.49968168
000160 3a af df bc 99 df dd 3e 5c 49 99 be b8 20 bd 3c
       -0.027305234 0.43334654 -0.2993878 0.02308689
000170 2d e9 25 bf c9 cd 21 3c 6a 4e 9d 3e 2c 54 56 be
       -0.64808923 0.009875723 0.30723888 -0.20930547
000180 0a 91 09 bf e9 c0 4a 3d 6b 3b 7e bd 6f b0 69 be
       -0.5373694 0.04950038 -0.062068384 -0.2282121
000190 32 02 2e 3e de 97 8d be 12 e7 63 be eb 36 a8 3e
       0.16993025 -0.27654928 -0.22256115 0.328544
0001a0 5b 2e dc 3d 37 04 ce 3e 64 ae 89 bd ac e1 9a be
       0.10751029 0.4023759 -0.067227155 -0.302503
0001b0 3e ec 9d be ef 42 c2 3e 90 a8 08 bf 0c ac 10 bf
       -0.308443 0.3794169 -0.53382206 -0.5651252
0001c0 8f 25 b2 3e 0e 05 6d 3e 31 28 3c be 08 17 13 3e
       0.3479428 0.2314646 -0.18374707 0.14364254
0001d0 3b 01 83 3e ab ab de 3c 35 5a 92 3e 9c 58 f0 bc
       0.25586876 0.027181467 0.28584448 -0.029339127
0001e0 01 7c 55 be db 5c 97 be 37 22 05 bd 54 30 c2 be
       -0.20848085 -0.2956303 -0.032503333 -0.37927496
0001f0 1b 9e eb be 5a b6 b5 3e 9d c0 1f bd bc 99 6b 3e
       -0.46019062 0.35490686 -0.03900205 0.23007864
000200 a4 c4 3b bf 73 30 81 3d 9d 05 a8 be 43 3c a4 3e
       -0.73346925 0.06308069 -0.32816783 0.32077226
000210 65 6b 6a be 61 cc 93 3c 79 2b 05 bf d8 9f bc bc
       -0.2289253 0.018041791 -0.5201946 -0.023025438
000220 e9 a9 0d bf f1 4a d3 be 3d 82 cb be ac cc 8c be
       -0.5533739 -0.41268113 -0.397478 -0.27499902
000230 3a 45 0d bf 46 42 32 be 88 4e 34 be 52 c3 c0 3e
       -0.55183756 -0.17408094 -0.17608082 0.37649018
000240 df b0 0d 3f 65 0c c6 be 2f b6 de 3e f8 ea b0 be
       0.5534801 -0.3868133 0.4349837 -0.34554267
000250 5b 81 be be 45 ab 62 be 5e d1 27 3d 50 68 11 be
       -0.37208065 -0.22135647 0.040971152 -0.14199948
000260 d9 e4 a0 3e e9 fa 1e bf f6 dc c8 be f3 2f 02 3f
       0.31424597 -0.6210161 -0.3923108 0.50854415
000270 48 95 e1 3e ba 50 bf 3e cf 81 91 3e 00 c9 f7 be
       0.44059205 0.37366277 0.2841935 -0.48395538
000280 fd ec 19 3e 0e 14 85 be 1d 91 90 bd 23 0e b7 be
       0.1503181 -0.25991863 -0.07058928 -0.35752973
000290 ed aa d4 be 4d 92 0f bf 57 59 df 3c b1 d0 eb be
       -0.41536656 -0.5608261 0.02726428 -0.46057656
0002a0 51 bf 31 3d ec a8 84 be d7 ed 55 3e 02 eb a5 3d
       0.043395344 -0.25910127 0.2089151 0.08101465
0002b0 71 eb 08 be d4 24 a6 3d 2f fc 41 3d c9 34 dd 3e
       -0.13371064 0.08112493 0.04735964 0.43204334
0002c0 97 a9 1e be b5 3b dc be 5c e7 e2 bd eb 5f de 3e
       -0.15494381 -0.43014303 -0.110792845 0.43432555
0002d0 f5 7b bc 3e 80 76 d5 3e c7 9e d0 be 35 1a c6 be
       0.36813322 0.4169197 -0.40746137 -0.3869187
0002e0 b8 a3 63 3e f4 e0 46 be 74 9e d6 bc 32 17 07 3e
       0.22230422 -0.1942175 -0.026198603 0.13192442
0002f0 38 cd b4 be 5a 80 27 bf b0 0a 80 3e 04 dd bb be
       -0.3531282 -0.65430224 0.25008154 -0.3669206
000300 fc a9 43 be e6 00 82 3e 50 67 15 bf e5 66 06 bf
       -0.19107813 0.2539131 -0.5836077 -0.52500755
000310 bf 4d bf 3e 05 0f f2 3a 7d ef 34 be 71 1a 8e 3e
       0.37364003 0.0018467611 -0.17669483 0.27754548
000320 8a 85 b7 be 9f ba bc 3d a8 95 69 bd 3d a1 91 be
       -0.3584407 0.09215283 -0.05702749 -0.28443328
000330 4f b2 9c be 0e 43 85 be d9 e8 0b bc 5f bc 55 be
       -0.3060479 -0.2602772 -0.008539402 -0.20872639
000340 e9 53 b2 be 02 7f 8d 3e e1 5d cb be 9f 87 f7 bd
       -0.34829643 0.27635962 -0.3972006 -0.120864145
000350 4e ef 85 3e b7 f1 ce bd f9 61 fc 3d 58 68 b9 3e
       0.26159137 -0.10104697 0.12323374 0.3621242
000360 ed 4a a0 3e 8a e5 5e 3c 06 45 fc be 17 54 8c be
       0.31307164 0.013604531 -0.4927141 -0.27407905
000370 51 c5 87 3e 4d 63 b7 bd 09 f9 ed be ef b6 9e 3d
       0.26517728 -0.08954487 -0.4647906 0.077497356
000380 e6 96 0b 3f 98 02 81 be 12 ea b5 3d 2e 8f 84 be
       0.5452713 -0.2519729 0.08882536 -0.25890487
000390 b9 38 fe 3d a9 0a 07 bc df e2 9a be c4 54 44 be
       0.12413163 -0.008242288 -0.30251214 -0.1917296
0003a0 a3 fc a6 be 43 0d d9 3d 59 06 4d be 09 a9 fe 3d
       -0.32614622 0.105982326 -0.20021953 0.12434585
0003b0 04 a3 47 bd 72 02 2a 3e 2d ea 8a 3e 01 80 09 be
       -0.04873945 0.16602495 0.27131787 -0.13427736
0003c0 38 27 6e be 23 c5 ca 3e 52 e0 ef be 65 27 d0 bd
       -0.23257148 0.39603528 -0.4685083 -0.10163764
0003d0 84 1b ea be c0 f1 87 3e 73 83 a2 3c f8 16 dc bb
       -0.45724118 0.26551628 0.01983807 -0.0067166053
0003e0 22 a9 87 3e a0 e2 ac 3c c1 93 a8 bd 02 6b 0b be
       0.26496226 0.021104157 -0.08231307 -0.13615039
0003f0 af 11 1c be c6 69 c7 3b 43 4e d9 3e d5 51 ac be
       -0.15241121 0.006085607 0.4244252 -0.33656183

sequential/dense_1/BiasAdd/ReadVariableOp f4 [32]
000000 42 75 e4 3d 1d a1 9b 3c 86 23 28 3e f4 75 37 3d
       0.11155178 0.018997723 0.16419801 0.044790223
000010 46 43 9f 3d d5 69 43 3e 7f 67 6f 3c 04 0d c7 3d
       0.07776503 0.1908334 0.014612078 0.097192794
000020 00 b3 1e 3e b9 67 98 bd 17 f8 e9 3d e0 b5 ea 3d
       0.1549797 -0.074416585 0.114242725 0.11460471
000030 d8 7c 2f 3d 7a db f6 bb 92 ee 11 3e 3b 15 2c 3e
       0.04284367 -0.007533488 0.14251164 0.16804974
000040 b9 68 0b 3e 39 d2 17 3e 8e 20 9d 3d 94 29 14 3e
       0.13614167 0.14826287 0.07672225 0.14468986
000050 b0 70 32 3e 90 60 91 3d 03 88 5d 3d 6f 42 da 3c
       0.174258 0.07098496 0.05408479 0.026643006
000060 92 df c9 3d 4e 5b 03 3e 99 f2 10 3e af c0 ad 3d
       0.09857096 0.12827799 0.14155044 0.08484017
000070 fb 22 ba 3d 47 55 c7 3d 20 8a 8d 3b 45 2a a4 3d
       0.09088703 0.09733062 0.0043194443 0.08015875

sequential/dense_2/BiasAdd/ReadVariableOp f4 [16]
000000 9c ab 80 3d 47 9d a8 3d d6 7f 9d bd a2 5c 06 be
       0.06282732 0.08233123 -0.076903984 -0.13121274
000010 ca 7e 15 3d 07 b3 11 3d 4a ce f9 3b 6c 68 00 be
       0.03649787 0.035571124 0.0076234685 -0.12539834
000020 d1 fb 3d 3e d9 73 b9 bd 0a 08 84 bc 55 c9 b0 3b
       0.18553092 -0.09055299 -0.016117115 0.0053950944
000030 04 eb 38 39 7b 32 1e bd 83 01 a5 3c 40 6a 85 3d
       0.00017635158 -0.03862236 0.020142322 0.06514406

sequential/dense/MatMul;sequential/dense/Relu;sequential/dense/BiasAdd f4 [64]
000000 2b 37 5e 3d 7e f0 66 c0 31 38 12 c0 a7 7d 19 40
       0.05425183 -3.6084285 -2.2846797 2.3982942
000010 25 c3 38 40 b0 55 68 c0 f3 a0 44 40 7c 19 82 40
       2.8869107 -3.63023 3.0723236 4.065611
000020 d3 a0 92 c0 3d 14 17 c0 4b 45 82 3e 31 b5 8f 40
       -4.582132 -2.3606102 0.2544349 4.490868
000030 49 21 2c c0 7d ec 4f c0 cf fd 91 c0 0e a3 5d c0
       -2.6895316 -3.248809 -4.5622325 -3.463077
000040 7c 83 81 c0 62 4f 6f 3f 43 68 60 40 9b 2f 0d 40
       -4.0473003 0.93480504 3.5063636 2.2060306
000050 0b 0c 5e 40 a4 fa 0b c0 6e 17 53 40 c0 53 ae 3f
       3.469485 -2.187173 3.298305 1.3619308
000060 3b 1a a4 40 9f ae dd be 0c e5 a4 bf 2a b6 b9 40
       5.128202 -0.43297288 -1.28824 5.803487
000070 3f 67 1e 40 3a 72 e3 c0 8c 4b e6 be ec 44 6c 40
       2.4750516 -7.1076937 -0.44979513 3.6917067
000080 f8 f7 26 40 5c 02 17 3e 43 95 2e 40 04 d5 d4 3f
       2.6088848 0.14746994 2.7278602 1.6627507
000090 b5 7d 43 c0 15 2f fc 3e 47 7f a2 be 3a e8 88 c0
       -3.0545475 0.4925467 -0.3173773 -4.278348
0000a0 58 5b 27 40 4c d6 6e bf 36 00 6e 3f 6c d7 97 bf
       2.6149502 -0.9329574 0.9296907 -1.1862617
0000b0 63 f9 02 c0 78 ef 78 40 db 51 36 3f 1c 3d 33 c0
       -2.0464714 3.889616 0.7121865 -2.8006048
0000c0 23 53 80 40 c3 12 13 3e ad f8 73 40 f8 06 bd bf
       4.0101485 0.14362626 3.812053 -1.4767752
0000d0 8f 0a db bf d7 89 08 c1 48 74 11 c0 8c 43 64 40
       -1.7112597 -8.533652 -2.2727222 3.5666227
0000e0 b2 95 76 40 87 86 bd 40 17 0b 55 c0 c9 5e 61 3d
       3.8528867 5.922672 -3.3288019 0.055022035
0000f0 14 a7 c6 40 54 3c 7a bc 0f 17 c3 3f 05 d8 42 40
       6.2078953 -0.015273172 1.5241412 3.0444348

sequential/batch_normalization/batchnorm/mul_1;sequential/batch_normalization/batchnorm/add_1;sequential/dense/MatMul;sequential/dense/Relu;sequential/dense/BiasAdd i1 [64, 42] scale=0.14095883 zero_point=0
000000 29 f3 fc 05 0b f8 01 f6 00 fb ef fa 02 fc 13 09
       5.779312 -1.8324648 -0.5638353 0.70479417 1.5505471 -1.1276706 0.14095883 -1.4095883 0.0 -0.70479417 -2.3963 -0.84575295 0.28191766 -0.5638353 2.678218 1.2686294
000010 0a 0b 04 f0 f1 f9 f5 fe 08 ff 07 00 f8 fd 01 07
       1.4095883 1.5505471 0.5638353 -2.2553413 -2.1143825 -0.9867118 -1.5505471 -0.28191766 1.1276706 -0.14095883 0.9867118 0.0 -1.1276706 -0.42287648 0.14095883 0.9867118
000020 09 0b f9 00 f8 fb fe ff 08 fb b3 11 fe f7 01 fe
       1.2686294 1.5505471 -0.9867118 0.0 -1.1276706 -0.70479417 -0.28191766 -0.14095883 1.1276706 -0.70479417 -10.85383 2.3963 -0.28191766 -1.2686294 0.14095883 -0.28191766
000030 fd f5 06 f6 04 00 fb 06 f7 00 fb 00 f9 07 fe 01
       -0.42287648 -1.5505471 0.84575295 -1.4095883 0.5638353 0.0 -0.70479417 0.84575295 -1.2686294 0.0 -0.70479417 0.0 -0.9867118 0.9867118 -0.28191766 0.14095883
000040 f9 01 f9 fb 08 fc 08 06 fe 00 ef f9 07 05 ff fe
       -0.9867118 0.14095883 -0.9867118 -0.70479417 1.1276706 -0.5638353 1.1276706 0.84575295 -0.28191766 0.0 -2.3963 -0.9867118 0.9867118 0.70479417 -0.14095883 -0.28191766
000050 fc fb ff 00 dd ff fd ea 13 f5 08 01 00 fe 04 f6
       -0.5638353 -0.70479417 -0.14095883 0.0 -4.933559 -0.14095883 -0.42287648 -3.1010942 2.678218 -1.5505471 1.1276706 0.14095883 0.0 -0.28191766 0.5638353 -1.4095883
000060 03 00 ec f4 ed fe fe 03 02 00 fd 03 06 00 0e 05
       0.42287648 0.0 -2.8191767 -1.6915059 -2.678218 -0.28191766 -0.28191766 0.42287648 0.28191766 0.0 -0.42287648 0.42287648 0.84575295 0.0 1.9734236 0.70479417
000070 f3 01 08 03 04 fd 02 fc f8 fc 06 08 0b 04 24 cd
       -1.8324648 0.14095883 1.1276706 0.42287648 0.5638353 -0.42287648 0.28191766 -0.5638353 -1.1276706 -0.5638353 0.84575295 1.1276706 1.5505471 0.5638353 5.0745177 -7.1889005
000080 fd 06 15 04 0c 09 12 0c 06 10 04 01 f1 02 e4 fa
       -0.42287648 0.84575295 2.9601355 0.5638353 1.6915059 1.2686294 2.5372589 1.6915059 0.84575295 2.2553413 0.5638353 0.14095883 -2.1143825 0.28191766 -3.9468472 -0.84575295
000090 02 f6 04 00 fa ff 02 ff 07 04 04 02 05 01 fc fb
       0.28191766 -1.4095883 0.5638353 0.0 -0.84575295 -0.14095883 0.28191766 -0.14095883 0.9867118 0.5638353 0.5638353 0.28191766 0.70479417 0.14095883 -0.5638353 -0.70479417
0000a0 fe 00 06 fc 06 ff f4 04 f4 f2 23 e6 02 09 ec fd
       -0.28191766 0.0 0.84575295 -0.5638353 0.84575295 -0.14095883 -1.6915059 0.5638353 -1.6915059 -1.9734236 4.933559 -3.6649296 0.28191766 1.2686294 -2.8191767 -0.42287648
0000b0 f1 08 ff 0a 01 04 f8 fb 01 fd fa 01 12 08 ff ff
       -2.1143825 1.1276706 -0.14095883 1.4095883 0.14095883 0.5638353 -1.1276706 -0.70479417 0.14095883 -0.42287648 -0.84575295 0.14095883 2.5372589 1.1276706 -0.14095883 -0.14095883
0000c0 ff 03 fb 05 11 09 05 ff fe fe dc ff fc 05 0a ff
       -0.14095883 0.42287648 -0.70479417 0.70479417 2.3963 1.2686294 0.70479417 -0.14095883 -0.28191766 -0.28191766 -5.0745177 -0.14095883 -0.5638353 0.70479417 1.4095883 -0.14095883
0000d0 06 fd 35 ff ef f0 02 f8 00 00 0c fb fb 0f fe 07
       0.84575295 -0.42287648 7.470818 -0.14095883 -2.3963 -2.2553413 0.28191766 -1.1276706 0.0 0.0 1.6915059 -0.70479417 -0.70479417 2.1143825 -0.28191766 0.9867118
0000e0 ec 05 ec fe 0a fc 07 01 08 fb 0c fe 0a f9 f9 ff
       -2.8191767 0.70479417 -2.8191767 -0.28191766 1.4095883 -0.5638353 0.9867118 0.14095883 1.1276706 -0.70479417 1.6915059 -0.28191766 1.4095883 -0.9867118 -0.9867118 -0.14095883
0000f0 fb 00 fb f8 17 ff 02 fe f9 00 f7 fa ac 24 f1 14
       -0.70479417 0.0 -0.70479417 -1.1276706 3.242053 -0.14095883 0.28191766 -0.28191766 -0.9867118 0.0 -1.2686294 -0.84575295 -11.840542 5.0745177 -2.1143825 2.8191767

sequential/dense_1/MatMul i1 [32, 64] scale=0.005323485 zero_point=0
000000 20 1a 34 04 34 ec c8 ef bf 55 df 03 f4 3f 0d c2
       0.17035152 0.13841061 0.27682123 0.02129394 0.27682123 -0.1064697 -0.29811516 -0.090499245 -0.34602654 0.45249623 -0.175675 0.015970455 -0.06388182 0.33537954 0.06920531 -0.33005607
000010 ee 22 1e ef 2c 12 cf 49 3a 3a ee eb 2b 1c e7 f9
       -0.09582273 0.18099849 0.15970455 -0.090499245 0.23423333 0.09582273 -0.26085076 0.38861442 0.30876213 0.30876213 -0.09582273 -0.11179318 0.22890985 0.14905758 -0.13308713 -0.037264396
000020 e9 1e 2a 53 37 13 2c 0b 1d 96 19 a5 bc eb df de
       -0.12244015 0.15970455 0.22358637 0.44184926 0.29279166 0.10114621 0.23423333 0.058558334 0.15438107 -0.5642894 0.13308713 -0.48443714 -0.36199698 -0.11179318 -0.175675 -0.18099849
000030 f1 23 10 2f eb f3 c6 2d 02 ff bc 3f 0f d7 2c fe
       -0.079852276 0.18632197 0.08517576 0.2502038 -0.11179318 -0.06920531 -0.30876213 0.23955682 0.01064697 -0.005323485 -0.36199698 0.33537954 0.079852276 -0.21826288 0.23423333 -0.01064697
000040 63 f7 38 1e d2 29 01 12 17 43 ed 30 07 3f 44 29
       0.52702504 -0.047911365 0.29811516 0.15970455 -0.2448803 0.21826288 0.005323485 0.09582273 0.12244015 0.3566735 -0.10114621 0.2555273 0.037264396 0.33537954 0.36199698 0.21826288
000050 15 d7 e6 c0 b4 31 c8 eb ed 43 f4 f5 f6 1c 20 d9
       0.11179318 -0.21826288 -0.13841061 -0.34070304 -0.40458485 0.26085076 -0.29811516 -0.11179318 -0.10114621 0.3566735 -0.06388182 -0.058558334 -0.05323485 0.14905758 0.17035152 -0.20761591
000060 d0 25 36 ab fe ef e5 3c 18 0f 2b 57 5f 05 dd 15
       -0.2555273 0.19696894 0.2874682 -0.45249623 -0.01064697 -0.090499245 -0.1437341 0.3194091 0.12776364 0.079852276 0.22890985 0.4631432 0.50573105 0.026617425 -0.18632197 0.11179318
000070 c7 bf e7 4f fd 1f 4d e7 ed c9 1f ca 0d 12 0a c8
       -0.30343863 -0.34602654 -0.13308713 0.42055532 -0.015970455 0.16502804 0.40990835 -0.13308713 -0.10114621 -0.29279166 0.16502804 -0.2874682 0.06920531 0.09582273 0.05323485 -0.29811516
000080 1e ce f9 35 03 48 e6 f4 f5 33 10 c1 5b 9a 20 e2
       0.15970455 -0.26617426 -0.037264396 0.2821447 0.015970455 0.38329092 -0.13841061 -0.06388182 -0.058558334 0.27149773 0.08517576 -0.33537954 0.48443714 -0.54299545 0.17035152 -0.15970455
000090 25 33 27 4f fd 0d 20 d7 d7 1f f3 e5 41 27 ae d5
       0.19696894 0.27149773 0.20761591 0.42055532 -0.015970455 0.06920531 0.17035152 -0.21826288 -0.21826288 0.16502804 -0.06920531 -0.1437341 0.34602654 0.20761591 -0.43652576 -0.22890985
0000a0 55 d4 8a dd 4f b4 42 de 18 0c fb 3d 07 c7 3c 19
       0.45249623 -0.23423333 -0.6281712 -0.18632197 0.42055532 -0.40458485 0.35135 -0.18099849 0.12776364 0.06388182 -0.026617425 0.32473257 0.037264396 -0.30343863 0.3194091 0.13308713
0000b0 3c f4 ef dc 38 48 0f ca 20 d8 3d f4 ec 42 e7 10
       0.3194091 -0.06388182 -0.090499245 -0.19164546 0.29811516 0.38329092 0.079852276 -0.2874682 0.17035152 -0.2129394 0.32473257 -0.06388182 -0.1064697 0.35135 -0.13308713 0.08517576
0000c0 22 ee 3c cb d3 ed 11 02 39 13 2e ef 2b e5 f1 dd
       0.18099849 -0.09582273 0.3194091 -0.2821447 -0.23955682 -0.10114621 0.090499245 0.01064697 0.30343863 0.10114621 0.2448803 -0.090499245 0.22890985 -0.1437341 -0.079852276 -0.18632197
0000d0 09 2d c0 18 c5 0a 32 1b 21 37 14 ed f7 05 a8 10
       0.047911365 0.23955682 -0.34070304 0.12776364 -0.3140856 0.05323485 0.26617426 0.1437341 0.175675 0.29279166 0.1064697 -0.10114621 -0.047911365 0.026617425 -0.46846667 0.08517576
0000e0 e1 0c fa e7 01 24 32 f6 c4 2e 1e b5 ec a2 47 4a
       -0.16502804 0.06388182 -0.03194091 -0.13308713 0.005323485 0.19164546 0.26617426 -0.05323485 -0.3194091 0.2448803 0.15970455 -0.3992614 -0.1064697 -0.5004076 0.37796745 0.3939379
0000f0 03 42 05 16 fe 36 c4 14 20 18 09 ef 01 35 fa 2f
       0.015970455 0.35135 0.026617425 0.11711667 -0.01064697 0.2874682 -0.3194091 0.1064697 0.17035152 0.12776364 0.047911365 -0.090499245 0.005323485 0.2821447 -0.03194091 0.2502038
