android/app/src/main/assets/model_static.tflite (tflite, 9720 bytes, 6 tensors)

sequential/dense_2/MatMul f4 [16, 32]
00000000: 9f26 c93e fe93 f5bd 9c91 ddbc 095e a53e
00000010: 6252 d6be 7de7 06bf 928c bcbe 27ea 323c
00000020: 8209 d43e 6621 493c a049 313d 36b4 8c3d
00000030: c01c 073e 4ba3 23be 3b61 4fbe 111e 473e
00000040: e6b7 babe 2191 96be 72f2 873e 6a91 7ebd
00000050: 5949 063e 92c5 583e 2474 223c c4fc 6c3c
00000060: 01c1 edbd 8c75 393e 8a5b df3e 4566 073f
00000070: 2a35 9fbe 8a11 88bd a24d d0be 17fd 70bd
00000080: ca7e 0abf b777 df3e 259d c1be 0cf6 87bc
00000090: 39be c5be d09e 8f3e 4710 afbe b9be a53e
000000a0: ab61 76be 45ee da3e ae6a 16bf b69d 00bf
000000b0: 13d5 bebd de2a 813e 414a 39bd dee4 a23e
000000c0: a6e6 ce3e 6983 89ba f40a 823e a03c 003e
000000d0: a1cf cfbe 5a85 843e 3046 eb3e 9e49 b83e
000000e0: 34bb bb3e b9b6 ffbd a74b dfbe 1828 9fbd
000000f0: 5e2c 48be a702 53be c061 e7be 2635 77be
00000100: 086b 953e 65de d33e ef8a 92be 3b1c ae3d
00000110: 308c 96be e337 af3d 9f87 4ebd 97c0 91be
00000120: 9ffc 893d 265c 183e a0dc c83d be00 6cbe
00000130: d57b 58bd 67b7 bd3e 825e aabe 5e62 01bf
00000140: 968d 8bbe 1c47 16bf e240 b33e 22ca 853d
00000150: 09b5 0abe 791e 85bd e422 8dbd 2723 a43c
00000160: 789a d93d 1614 e9be b9b0 113e 607c 84be
00000170: 2212 fa3e 0ef8 b5be 9d0e 333e ca7b ff3c
00000180: e40d 8a3e 9aab 9a3e 5bba b5bd 56d3 9ebe
00000190: 7449 1a3c 5d41 fa3e 6346 1ebd 800a cbbe
000001a0: 9c7d ae3e 3a0b af3e 42d8 6cbe 083c 343e
000001b0: f54a 383b 357e 56be 632a aabd c0e8 a73d
000001c0: abd2 7ebe a6a3 18bf 4c9e a1be c726 8ebe
000001d0: e256 f03e ce4e 363e 6f83 96bd 14ea 49be
000001e0: 333f c93d beaf 83bd 96cc cdbe 85a3 de3e
000001f0: 22af e6be 840a 993e 24c7 59be 2987 80be
00000200: 4a7f 0cbe ae5c e93e e106 08bd f718 113f
00000210: 7359 94be a5fd d0be 2b52 9a3e b298 f8bd
00000220: 9672 0e3f 225a b9be 686d 17bf 5477 8cbe
00000230: 8e77 62be 6595 0fbf 5081 f7bd 444d 413d
00000240: 3be9 e23d 377b 563e 693d 053e a41f 14be
00000250: b9ac 533e c33b 4d3e 98df 01be 56ab 0ebe
00000260: b843 d5bd 61d0 19bf 3c1f 12be 5da6 b43e
00000270: 80b6 033d ee0d 07bd 4fdc ba3e 2d59 14bf
00000280: 0255 f83e f440 9cbe 322a d7bd ce39 a6be
00000290: 4718 253e f310 a3be face 39be 5bf2 c0be
000002a0: b7a3 47bd 1f1e 93be 3f3b 6cbe 91c7 56be
000002b0: a75b ae3e 89f4 8dbe a229 bb3e df94 453e
000002c0: 0ead 9fbc d092 9d3d 2c0a ef3e ed8e edbe
000002d0: dca7 ecbe fa06 a8bc 93bd 9fbe e1d2 073f
000002e0: 273d bcbd 01df 0e3d 0b8d 82be 5fbc 03bf
000002f0: bc1b 7c3e 665f e9be a5d5 8c3e e00c 403d
00000300: ca45 923e af4f cfbe 65b2 763e 6b77 da3e
00000310: e6a1 a03e 474b 84be 8230 88be b616 be3e
00000320: 7764 a83d a4ed 09bf c948 96bd d5d9 e73e
00000330: 14c5 ce3d 715e cc3c 30c8 f8be b760 cdbe
00000340: 4c43 933e a8fc 07bf 969b 12be e26e cfbe
00000350: c3db 8e3e 73e5 e8bd 0ffd 35be 51ad c2be
00000360: 39a0 d7bd 4a18 6c3e 069d 083d c3cc 683e
00000370: 4697 dabd ed4c 883e 30d9 79bd 9b15 863e
00000380: 0e49 a5be 126b c2bd 7acc 7f3b 0ddf 79bd
00000390: 3973 033d 78ed 393d 2338 723e 1ad9 5d3e
000003a0: 749f 333d a579 00bf fbfd ea3e fc7c b33e
000003b0: 447a fcbe 121d 89be e2a1 9c3d 7131 18bc
000003c0: 6ad7 8d3e cec5 fcbe 9af9 23be b268 363d
000003d0: 673f a93e 95a9 9abd 065d 083d 5bc7 f53e
000003e0: f865 d73e b794 823d c798 8b3e ec93 7cbe
000003f0: b72f 4bbe 4ffc cebe 4c2e b8be b822 f03e
0.39287278 -0.11991118 -0.027046971 0.32298306 -0.41859728 -0.52696973 -0.36825997 0.010920084
0.41413504 0.012276029 0.043283105 0.0687031 0.13194561 -0.1598026 -0.20251934 0.19445063
-0.36468428 -0.294076 0.2655216 -0.062150396 0.13113917 0.21169117 0.009915385 0.014464561
-0.11609078 0.18111247 0.43624526 0.52890426 -0.31095248 -0.0664397 -0.4068423 -0.058835115
-0.54099715 0.43646023 -0.37815204 -0.016596816 -0.3862169 0.28050852 -0.34192106 0.32372072
-0.24060695 0.4275991 -0.5875653 -0.5024065 -0.093179844 0.25228018 -0.04523683 0.31815237
0.40410346 -0.0010491434 0.25398982 0.12523127 -0.40588096 0.2588299 0.45951986 0.35993665
0.36666262 -0.124860235 -0.43612406 -0.07771319 -0.19548175 -0.2060648 -0.45191765 -0.24141368
0.2918322 0.4138061 -0.28621623 0.08501478 -0.2940383 0.085555814 -0.050422307 -0.28467247
0.06737637 0.14878902 0.09807706 -0.23047158 -0.05285247 0.37053987 -0.3327523 -0.5054072
-0.2725646 -0.58702254 0.3501044 0.065326944 -0.13545622 -0.06499953 -0.068914205 0.020036293
0.10625166 -0.45523137 0.1422757 -0.2587614 0.4884196 -0.35540813 0.17486043 0.031186957
0.26963723 0.30209047 -0.08873435 -0.31020612 0.009416927 0.48877993 -0.038641345 -0.39656448
0.34080207 0.34188253 -0.23129371 0.17601025 0.002812085 -0.20946582 -0.08308866 0.081986904
-0.24885051 -0.5962471 -0.31566083 -0.2776396 0.46941286 0.17803499 -0.07349288 -0.197182
0.098265074 -0.064300045 -0.4019515 0.4348413 -0.4505549 0.29890835 -0.21267372 -0.2510312
-0.13720432 0.4557852 -0.033209685 0.5667872 -0.28974494 -0.40818515 0.30140814 -0.12138499
0.55643594 -0.36201578 -0.59151316 -0.2743479 -0.22115919 -0.5608733 -0.12085211 0.047192827
0.110796414 0.2094544 0.13011707 -0.14465195 0.20671357 0.20042329 -0.1268295 -0.13932547
-0.10413307 -0.60083586 -0.14269727 0.35283175 0.032156467 -0.03297227 0.36496207 -0.5794857
0.48502356 -0.30518305 -0.10506095 -0.32465976 0.16122542 -0.3184887 -0.18145362 -0.37684903
-0.048740115 -0.28733918 -0.23069476 -0.20974566 0.340543 -0.27725628 0.365552 0.19295071
-0.019491699 0.07694018 0.46687448 -0.46398106 -0.46221817 -0.02051114 -0.3119932 0.5305615
-0.091913514 0.03488064 -0.25498232 -0.51459306 0.24619955 -0.45580596 0.27506748 0.04688728
0.2856887 -0.4049048 0.2409149 0.42669234 0.3137352 -0.25838682 -0.2659951 0.37126702
0.08222287 -0.53878236 -0.073381014 0.4528338 0.100961834 0.024947377 -0.4859023 -0.4011285
0.2876228 -0.531199 -0.14317164 -0.40514284 0.2790204 -0.11371889 -0.17772315 -0.38022855
-0.10528607 0.2305614 0.033352874 0.2273436 -0.10673384 0.2662119 -0.06099814 0.2618836
-0.322823 -0.09493078 0.003903179 -0.061003733 0.032092307 0.045392483 0.23654227 0.21664849
0.04385324 -0.50185615 0.45896897 0.35056293 -0.4931203 -0.2677999 0.07648064 -0.0092891315
0.2770341 -0.49369663 -0.16013184 0.04453344 0.33056185 -0.075518765 0.03329184 0.4800366
0.42069983 0.06376021 0.27264997 -0.24665803 -0.1984242 -0.4042687 -0.35972822 0.46901488

sequential/dense_1/BiasAdd/ReadVariableOp f4 [32]
00000000: 8bb9 d33d 5d30 423e 95b6 48bd b31d 713d
00000010: 8aa6 063c 0fdd 88bd 4c2f ff3d c671 313e
00000020: e6cd 53bc a064 0d3e b0e6 973c 91b9 e9bc
00000030: f25d 6d3d e2e3 ca3d 4e70 143e 6d97 0d3e
00000040: b432 043e ff50 503e 5e44 203e 8e97 fbbc
00000050: 6dbb 363d 8b29 48bd 0f31 763d aab1 a7ba
00000060: e897 b1bc acec 0b3e 7741 a03b 88b0 223e
00000070: 7974 0b3e 9b0a 4e3e 4b5e e03d f340 203d
0.10338124 0.18963762 -0.04900225 0.058866214 0.008218417 -0.066827886 0.12460193 0.17328557
-0.012927508 0.13807917 0.018542618 -0.028530868 0.05795092 0.099067464 0.14495966 0.13827296
0.12909967 0.20343398 0.1565108 -0.030711915 0.044612337 -0.048867743 0.06010538 -0.0012794037
-0.02167888 0.13664502 0.0048906165 0.15887654 0.1361865 0.20121233 0.10955485 0.03912444

sequential/dense_2/BiasAdd/ReadVariableOp f4 [16]
00000000: 2862 ebbc 3ab2 ba3d 85a3 153e 6381 a9bd
00000010: 1e30 d43d 0270 cd3d f7f5 103d f21c b5bd
00000020: d54b 1a3e cd3b 0fbe 612f 333d 510d f0bd
00000030: a098 76bd 37c3 b4bd b5d7 babd 2027 8d3c
-0.028733328 0.09116025 0.14613159 -0.08276632 0.1036074 0.100311294 0.03539082 -0.088434115
0.1506799 -0.13987656 0.043746356 -0.1172129 -0.06020415 -0.08826297 -0.09123174 0.01723057

sequential/dense/MatMul;sequential/dense/Relu;sequential/dense/BiasAdd f4 [64]
00000000: d4a0 0c40 4e2a a0c0 8d88 9a40 5d33 1040
00000010: 865d 24c0 7c16 99c0 9e6d 4840 53aa e13f
00000020: ca26 6940 94e6 0e40 c146 7d40 c37e a9c0
00000030: 9cfa 57bf 7042 1c40 33e9 3cc0 8a77 fd3f
00000040: 1ef8 f43d 499e 9640 37ea 6e40 8f1d 7940
00000050: 4ace d2bd 693c f9bf ccb8 21c0 26f0 5040
00000060: 1792 29be e1f9 7e40 ade8 1c40 c931 633f
00000070: 4f8f e53f 4431 71c0 b3e6 3840 9bf8 1b40
00000080: 35ef 3240 6538 c93f bb1d 3e40 c506 9d40
00000090: 78c7 c4bf 9439 0abf b866 80c0 b553 eebf
000000a0: 6bb8 bfc0 e681 f6bf 71ed c6c0 9831 49be
000000b0: ecc1 6f3e 4dbb 0140 a3d0 ef3e 0775 29c1
000000c0: 4dc8 a440 cda2 24c0 9f56 3440 6426 54bf
000000d0: 3d71 1cc0 a026 9c40 5e04 11c1 8bd2 4a40
000000e0: 7545 7740 1f36 45c0 6ace 69c0 938a df3e
000000f0: 00a3 aa40 df15 07c0 2d5b 63c0 fb71 8a40
2.1973162 -5.005164 4.829169 2.253135 -2.5682082 -4.7839947 3.1316905 1.7630104
3.6429925 2.2328234 3.9574435 -5.296724 -0.84366775 2.441555 -2.9517334 1.9802105
0.11961387 4.706822 3.7330453 3.892429 -0.10293253 -1.9471561 -2.526904 3.2646575
-0.16559635 3.9840014 2.4517014 0.8874784 1.7934359 -3.768632 2.8890808 2.4370487
2.79585 1.5720335 2.9705646 4.9070764 -1.5373373 -0.5399411 -4.012539 -1.8619295
-5.991262 -1.9258392 -6.2164845 -0.19647825 0.23413819 2.027057 0.46838865 -10.591071
5.149451 -2.5724366 2.817787 -0.8287108 -2.4444115 4.879715 -9.063566 3.1691005
3.8636143 -3.0814283 -3.6532235 0.4366041 5.3323975 -2.11071 -3.55244 4.3264136

sequential/batch_normalization/batchnorm/mul_1;sequential/batch_normalization/batchnorm/add_1;sequential/dense/MatMul;sequential/dense/Relu;sequential/dense/BiasAdd i1 [64, 42] scale=0.12940677 zero_point=0
00000000: 315d 09f1 000a fafc 0907 f30b 06fe f7ff
00000010: 0806 fbfb 0605 0f00 ff03 0c02 fe00 f407
00000020: f7ff f3f8 08ff f605 ef01 c2d6 00f1 fcf4
00000030: fee7 fdf0 f6f9 f5fb 080b fe08 fdf5 fef6
00000040: 0c01 0902 f9fe fc01 03fd 0307 f3f8 0bfd
00000050: 0bf7 10f6 f9b8 2b1b fd0c 0900 1810 060a
00000060: 0206 f003 f103 fbfd fbfb 0bfd 0002 0bf8
00000070: 03ff 0300 0a06 eafc f6ff fefc fb02 f0b1
00000080: de12 f30b f70b 0803 0202 edfc f909 fc05
00000090: 000b 0704 0501 09fb 09fd 0504 fdfe 0602
000000a0: 10ff 12ff fc07 0008 e716 f603 fefc f2f2
000000b0: fffe 04fe f805 f308 0304 fbf3 f906 fe00
000000c0: ff03 0c02 0503 f9fd fe04 0b04 0efa fdff
000000d0: f000 d63c 060d ff01 f302 fc09 0b00 0bff
000000e0: e9f6 e1fc 030b 02fe 05f8 00fd 1a07 f9fe
000000f0: 07f8 fefc 18fc f500 faff ff02 f7ed 3123
6.3409314 12.034829 1.1646609 -1.9411014 0.0 1.2940676 -0.7764406 -0.51762706
1.1646609 0.9058474 -1.6822879 1.4234744 0.7764406 -0.25881353 -1.1646609 -0.12940677
1.0352541 0.7764406 -0.6470338 -0.6470338 0.7764406 0.6470338 1.9411014 0.0
-0.12940677 0.3882203 1.5528812 0.25881353 -0.25881353 0.0 -1.5528812 0.9058474
-1.1646609 -0.12940677 -1.6822879 -1.0352541 1.0352541 -0.12940677 -1.2940676 0.6470338
-2.199915 0.12940677 -8.023219 -5.4350843 0.0 -1.9411014 -0.51762706 -1.5528812
-0.25881353 -3.2351692 -0.3882203 -2.0705082 -1.2940676 -0.9058474 -1.4234744 -0.6470338
1.0352541 1.4234744 -0.25881353 1.0352541 -0.3882203 -1.4234744 -0.25881353 -1.2940676
1.5528812 0.12940677 1.1646609 0.25881353 -0.9058474 -0.25881353 -0.51762706 0.12940677
0.3882203 -0.3882203 0.3882203 0.9058474 -1.6822879 -1.0352541 1.4234744 -0.3882203
1.4234744 -1.1646609 2.0705082 -1.2940676 -0.9058474 -9.317287 5.564491 3.4939826
-0.3882203 1.5528812 1.1646609 0.0 3.1057625 2.0705082 0.7764406 1.2940676
0.25881353 0.7764406 -2.0705082 0.3882203 -1.9411014 0.3882203 -0.6470338 -0.3882203
-0.6470338 -0.6470338 1.4234744 -0.3882203 0.0 0.25881353 1.4234744 -1.0352541
0.3882203 -0.12940677 0.3882203 0.0 1.2940676 0.7764406 -2.8469489 -0.51762706
-1.2940676 -0.12940677 -0.25881353 -0.51762706 -0.6470338 0.25881353 -2.0705082 -10.223134
-4.39983 2.3293219 -1.6822879 1.4234744 -1.1646609 1.4234744 1.0352541 0.3882203
0.25881353 0.25881353 -2.4587286 -0.51762706 -0.9058474 1.1646609 -0.51762706 0.6470338
0.0 1.4234744 0.9058474 0.51762706 0.6470338 0.12940677 1.1646609 -0.6470338
1.1646609 -0.3882203 0.6470338 0.51762706 -0.3882203 -0.25881353 0.7764406 0.25881353
2.0705082 -0.12940677 2.3293219 -0.12940677 -0.51762706 0.9058474 0.0 1.0352541
-3.2351692 2.8469489 -1.2940676 0.3882203 -0.25881353 -0.51762706 -1.8116947 -1.8116947
-0.12940677 -0.25881353 0.51762706 -0.25881353 -1.0352541 0.6470338 -1.6822879 1.0352541
0.3882203 0.51762706 -0.6470338 -1.6822879 -0.9058474 0.7764406 -0.25881353 0.0
-0.12940677 0.3882203 1.5528812 0.25881353 0.6470338 0.3882203 -0.9058474 -0.3882203
-0.25881353 0.51762706 1.4234744 0.51762706 1.8116947 -0.7764406 -0.3882203 -0.12940677
-2.0705082 0.0 -5.4350843 7.7644057 0.7764406 1.6822879 -0.12940677 0.12940677
-1.6822879 0.25881353 -0.51762706 1.1646609 1.4234744 0.0 1.4234744 -0.12940677
-2.9763556 -1.2940676 -4.0116096 -0.51762706 0.3882203 1.4234744 0.25881353 -0.25881353
0.6470338 -1.0352541 0.0 -0.3882203 3.3645759 0.9058474 -0.9058474 -0.25881353
0.9058474 -1.0352541 -0.25881353 -0.51762706 3.1057625 -0.51762706 -1.4234744 0.0
-0.7764406 -0.12940677 -0.12940677 0.25881353 -1.1646609 -2.4587286 6.3409314 4.529237

sequential/dense_1/MatMul i1 [32, 64] scale=0.0063295034 zero_point=0
00000000: 1a05 d721 1b02 0fa9 e630 3f04 0f0a 121a
00000010: 1cfb ee27 00e6 1d32 2115 022d e21a 381e
00000020: fcf4 d945 f622 fe2f 2912 341e fff1 1ffd
00000030: fb45 acf5 e9d9 1af0 2620 e027 03e8 2422
00000040: 0418 0ddc f619 14f6 ebb2 301c 00dd 0ede
00000050: 0132 1d0a fd33 1821 0306 caeb e2d9 b725
00000060: 113d e138 e503 4b04 4d4b 1c2e da15 1f3f
00000070: e9d9 1edc ab33 3229 fce2 1d31 2712 bbc1
00000080: fa0c 0dd6 fd00 fce0 08d7 0cf1 0200 e80d
00000090: 04f8 de00 19ef e4d7 0cd2 f5f5 e6e5 1e08
000000a0: d706 f003 f508 1bf7 f9f7 f500 17e8 ece2
000000b0: 0add dafe ed12 daec d8e2 1ee1 e6f1 f2d9
000000c0: 1152 10d7 1fbf 0dca 207f 2efd bbfc 23f3
000000d0: 15ec ede7 e7e8 1f31 f4d8 f432 fa1a d4ff
000000e0: eed7 194c 210e de2b fb0e fbe8 452c 1a02
000000f0: dff1 1fbb 1233 ff57 d7f8 cc2a 21da d623
0.16456708 0.03164752 -0.25950965 0.20887361 0.17089659 0.012659007 0.09494255 -0.5506668
-0.16456708 0.30381617 0.3987587 0.025318014 0.09494255 0.06329504 0.11393106 0.16456708
0.1772261 -0.03164752 -0.11393106 0.24685062 0.0 -0.16456708 0.1835556 0.31647518
0.20887361 0.13291956 0.012659007 0.28482765 -0.1898851 0.16456708 0.3544522 0.1898851
-0.025318014 -0.07595404 -0.24685062 0.43673572 -0.06329504 0.21520312 -0.012659007 0.29748666
0.25950965 0.11393106 0.32913417 0.1898851 -0.0063295034 -0.09494255 0.1962146 -0.01898851
-0.03164752 0.43673572 -0.53167826 -0.069624536 -0.14557858 -0.24685062 0.16456708 -0.101272054
0.24052113 0.20254411 -0.20254411 0.24685062 0.01898851 -0.15190808 0.22786212 0.21520312
0.025318014 0.15190808 0.08228354 -0.22786212 -0.06329504 0.15823759 0.12659007 -0.06329504
-0.13291956 -0.49370125 0.30381617 0.1772261 0.0 -0.22153261 0.08861305 -0.21520312
0.0063295034 0.31647518 0.1835556 0.06329504 -0.01898851 0.32280466 0.15190808 0.20887361
0.01898851 0.03797702 -0.34179318 -0.13291956 -0.1898851 -0.24685062 -0.46205375 0.23419163
0.10760156 0.3860997 -0.1962146 0.3544522 -0.17089659 0.01898851 0.47471276 0.025318014
0.48737177 0.47471276 0.1772261 0.29115716 -0.24052113 0.13291956 0.1962146 0.3987587
-0.14557858 -0.24685062 0.1898851 -0.22786212 -0.5380078 0.32280466 0.31647518 0.25950965
-0.025318014 -0.1898851 0.1835556 0.31014568 0.24685062 0.11393106 -0.43673572 -0.3987587
-0.03797702 0.07595404 0.08228354 -0.26583913 -0.01898851 0.0 -0.025318014 -0.20254411
0.050636027 -0.25950965 0.07595404 -0.09494255 0.012659007 0.0 -0.15190808 0.08228354
0.025318014 -0.050636027 -0.21520312 0.0 0.15823759 -0.10760156 -0.1772261 -0.25950965
0.07595404 -0.29115716 -0.069624536 -0.069624536 -0.16456708 -0.17089659 0.1898851 0.050636027
-0.25950965 0.03797702 -0.101272054 0.01898851 -0.069624536 0.050636027 0.17089659 -0.05696553
-0.044306524 -0.05696553 -0.069624536 0.0 0.14557858 -0.15190808 -0.12659007 -0.1898851
0.06329504 -0.22153261 -0.24052113 -0.012659007 -0.12026057 0.11393106 -0.24052113 -0.12659007
-0.25318015 -0.1898851 0.1898851 -0.1962146 -0.16456708 -0.09494255 -0.08861305 -0.24685062
0.10760156 0.5190193 0.101272054 -0.25950965 0.1962146 -0.41141772 0.08228354 -0.34179318
0.20254411 0.80384696 0.29115716 -0.01898851 -0.43673572 -0.025318014 0.22153261 -0.08228354
0.13291956 -0.12659007 -0.12026057 -0.15823759 -0.15823759 -0.15190808 0.1962146 0.31014568
-0.07595404 -0.25318015 -0.07595404 0.31647518 -0.03797702 0.16456708 -0.27849814 -0.0063295034
-0.11393106 -0.25950965 0.15823759 0.48104227 0.20887361 0.08861305 -0.21520312 0.27216864
-0.03164752 0.08861305 -0.03164752 -0.15190808 0.43673572 0.27849814 0.16456708 0.012659007
-0.20887361 -0.09494255 0.1962146 -0.43673572 0.11393106 0.32280466 -0.0063295034 0.5506668
-0.25950965 -0.050636027 -0.32913417 0.26583913 0.20887361 -0.24052113 -0.26583913 0.22153261
