android/app/src/main/assets/model_dynamic.tflite (tflite, 38464 bytes, 8 tensors)

sequential_1/dense_2/BiasAdd/ReadVariableOp f4 [64]
0	0xbe79e4b1	-0.24403645
1	0x3e9168cf	0.28400275
2	0xbd5a426a	-0.053285994
3	0x3ebe158e	0.3712582
4	0x3f12dbfa	0.5736691
5	0x3da7ac1b	0.081871234
6	0x3ebb85f1	0.36625627
7	0xbede03e4	-0.43362343
8	0x3d09ed59	0.033673618
9	0xbddafaf4	-0.10692397
10	0x3f30e650	0.6910143
11	0xbe933063	-0.28747854
12	0xbdb9eec7	-0.09078746
13	0x3cf19f44	0.02949489
14	0x3cec0248	0.028809682
15	0xbc161299	-0.009159707
16	0xbdbe9df4	-0.09307471
17	0xbf078634	-0.5293915
18	0x3e00373e	0.12521073
19	0x3d0d58b3	0.03450842
20	0x3dd98dc6	0.10622744
21	0x3ef8fd64	0.48630822
22	0xbde66296	-0.112492725
23	0xbe73b318	-0.23798788
24	0x3e8b05d1	0.27152875
25	0x3e8ed1df	0.27894494
26	0x3e8b2747	0.27178404
27	0x3e8813c6	0.26577586
28	0xbf2e6396	-0.68120706
29	0x3dc3a03b	0.09552046
30	0x3dd87b2b	0.105703674
31	0xbdb9fbf5	-0.0908126
32	0x3f1833bf	0.5945396
33	0x3f240a51	0.6407824
34	0x3d01ae74	0.031660512
35	0x3f24fbdd	0.6444681
36	0x3ed018bd	0.40643874
37	0xbef57205	-0.47938552
38	0xbe4fb2b7	-0.20283018
39	0x3e78ce8d	0.24297543
40	0xbe6284bf	-0.22120951
41	0x3eb915b3	0.36149368
42	0x3d219414	0.03944786
43	0xbe0d02ab	-0.13770549
44	0xbedaa118	-0.4270103
45	0xbd749d56	-0.05972036
46	0x3d578f10	0.05262667
47	0x3e4b7af2	0.19871119
48	0x3e80352a	0.2504056
49	0x3e884515	0.26615205
50	0xbd0eb3c6	-0.034839414
51	0xbe99eb6a	-0.3006242
52	0x3d3ce19d	0.0461136
53	0x3bb2ede5	0.005460488
54	0x3de5afee	0.112151965
55	0xbef59d23	-0.47971448
56	0xbe0e8706	-0.13918695
57	0x3e9283d3	0.286162
58	0x3e3b2084	0.18274122
59	0x3c813034	0.015770055
60	0x3d909a53	0.07060685
61	0xbeb70346	-0.35744685
62	0x3ef9e6fe	0.48809046
63	0x3c1ba1d8	0.009499036

sequential_1/lstm_1/Read_2/ReadVariableOp f4 [256]
0	0xbf1fe59b	-0.62459725
1	0xbf2b4757	-0.6690573
2	0xbf75c48b	-0.96003026
3	0xbf09675e	-0.5367335
4	0xbd76ee68	-0.060285956
5	0xbf29d6db	-0.6634347
6	0xbebec543	-0.37259874
7	0xbefdbd3f	-0.49558446
8	0xbf431c63	-0.7621519
9	0xbf31ab78	-0.69402266
10	0xbea67a38	-0.3251512
11	0x3d6ecdbb	0.05830167
12	0xbf14eac7	-0.5817074
13	0x3e057e7e	0.13036534
14	0xbf02cf02	-0.5109712
15	0xbf7f6e5f	-0.9977779
16	0x3f17e81b	0.5933854
17	0xbf2b24bf	-0.66852945
18	0xbe891731	-0.26775506
19	0x3f51416b	0.81740445
20	0xbf8f34ff	-1.1188048
21	0x3ddd2e23	0.107998155
22	0xbf35cb8b	-0.71013707
23	0xbf5e30a4	-0.8679297
24	0xbf716a11	-0.9430247
25	0xbed9c9d5	-0.42536798
26	0xbf000fcc	-0.50024104
27	0xbf104a54	-0.56363416
28	0xbf5667ff	-0.83752435
29	0xbebfb533	-0.37442932
30	0xbf0ecf87	-0.5578541
31	0xbf650175	-0.8945535
32	0xbf4f3fc0	-0.8095665
33	0xbf3eb1de	-0.74490154
34	0xbf1ad342	-0.60478604
35	0xbf4f9c4f	-0.81097883
36	0xbef509e0	-0.47859097
37	0xbf51ed2c	-0.8200252
38	0x3c0ede7f	0.008720039
39	0xbf7f698f	-0.99770445
40	0xbf25670b	-0.64610356
41	0xbf338538	-0.7012515
42	0xbf538ced	-0.8263691
43	0xbf357264	-0.7087767
44	0xbf8a4fae	-1.0805566
45	0xbf593375	-0.8484414
46	0xbf187534	-0.5955384
47	0xbf7fd4ac	-0.99933887
48	0xbf60faed	-0.8788288
49	0xbf1e0f39	-0.6174198
50	0xbf1e9b3c	-0.6195562
51	0xbf54bb97	-0.8309874
52	0xbf82a092	-1.0205252
53	0xbf3ad0d2	-0.72974885
54	0x3f06a6aa	0.5259806
55	0xbf495471	-0.7864447
56	0xbf800d7e	-1.0004117
57	0xbeaae435	-0.33377233
58	0xbf08075d	-0.53136235
59	0x3d62634b	0.055270474
60	0xbf5d3f66	-0.86424863
61	0xbf66adcc	-0.90108943
62	0x3e08f4ca	0.1337463
63	0xbf0451d8	-0.51687384
64	0x3fbabad2	1.4588263
65	0x3f986298	1.1905088
66	0x3f9d4da0	1.2289314
67	0x3faf077a	1.3674157
68	0x3dcff537	0.10154193
69	0x3faa1f4b	1.32908
70	0x3f072950	0.5279741
71	0x3f6c75db	0.92367333
72	0x3faefbe7	1.3670624
73	0x3f66c49d	0.9014376
74	0x3f86f00e	1.0542009
75	0x3f263e5f	0.6493892
76	0x3f46a376	0.7759317
77	0x3ed4cc5d	0.41562167
78	0x3f821088	1.0161295
79	0x3fa075fd	1.2536007
80	0x3f20b718	0.6277938
81	0x3f97f106	1.187043
82	0x3f515581	0.81771094
83	0x3f19d5b1	0.6009169
84	0x3ed09936	0.4074189
85	0x3ea43275	0.32069746
86	0x3fbc5f44	1.4716573
87	0x3f6c3a6f	0.9227666
88	0x3f7228a8	0.94593287
89	0x3f8f1ff9	1.1181632
90	0x3f7b5849	0.9818159
91	0x3f9f57ae	1.2448633
92	0x3f4afa5d	0.79288274
93	0x3f97b420	1.1851845
94	0x3f2cf830	0.67566204
95	0x3f7e98b4	0.99451756
96	0x3f83c30f	1.0293902
97	0x3f8f6911	1.1203939
98	0x3e955d98	0.2917297
99	0x3f98f1b9	1.1948768
100	0x3f6a62df	0.91557115
101	0x3f4547a4	0.7706244
102	0x3fa69978	1.3015585
103	0x3fb66025	1.4248091
104	0x3f8eb2a4	1.1148267
105	0x3f88da2d	1.0691582
106	0x3f6cea29	0.925448
107	0x3f223188	0.6335683
108	0x3f17f646	0.5936016
109	0x3fcb0a2f	1.5862483
110	0x3f8a703c	1.0815501
111	0x3faa8dec	1.3324561
112	0x3f3a2b05	0.7272189
113	0x3f4b23b0	0.7935133
114	0x3f4c5998	0.7982421
115	0x3f8f57c1	1.1198655
116	0x3fa54320	1.291111
117	0x3f2a16fe	0.66441333
118	0x3efddd36	0.49582833
119	0x3f786022	0.9702169
120	0x3f93741b	1.1519808
121	0x3f2375e8	0.63851786
122	0x3fa017ea	1.2507298
123	0x3e42c301	0.190197
124	0x3f31ea87	0.69498485
125	0x3f077089	0.5290609
126	0x3f0845c4	0.53231454
127	0x3f691737	0.9105105
128	0x3d19de3f	0.037565466
129	0x3dcf224d	0.10113964
130	0x3d00d403	0.03145219
131	0x3d79699c	0.060891733
132	0x3e321ab1	0.17392994
133	0x3d11c9d4	0.03559287
134	0x3e329c82	0.17442515
135	0x3d9cfe35	0.07665674
136	0xbc7431d5	-0.014904459
137	0xbe41b9e9	-0.18918575
138	0x3dfdc109	0.12390334
139	0x3ce366b1	0.027758928
140	0xbddcdf5c	-0.1078479
141	0xbb3aa79c	-0.002848125
142	0xbe32fd66	-0.17479476
143	0x3daf7a38	0.08568233
144	0xbccbc0c1	-0.024872186
145	0xbe705fe6	-0.23474082
146	0x3d4f3348	0.050586015
147	0xbcb548b6	-0.022129398
148	0x3e2ded76	0.16985115
149	0x3d33856f	0.043828424
150	0xbddbd0cc	-0.10733184
151	0xbd76be76	-0.06024023
152	0x3db3bb2d	0.08775935
153	0xbe1b2381	-0.15150262
154	0xbdfb36bc	-0.12266299
155	0x3d8beb85	0.06832031
156	0x3d4d7a45	0.050165433
157	0xbd90cd3e	-0.07070397
158	0x3d02ad7f	0.03190374
159	0xbd57116d	-0.052506853
160	0xbd0307aa	-0.03198973
161	0x3d2208d5	0.039559204
162	0x3df606cb	0.120130144
163	0xbde3159f	-0.11088108
164	0x3defc3a6	0.11707239
165	0xbc082bb9	-0.008311206
166	0xbdf7cf4a	-0.12100084
167	0x3de3af29	0.111173935
168	0xbdff51b7	-0.12466758
169	0x3de7641b	0.112983905
170	0x3c3eec3f	0.011653005
171	0xbe445206	-0.19171914
172	0x3ddef13f	0.10885858
173	0x3bd593b6	0.0065178527
174	0xbe172047	-0.14758407
175	0xbdd51a51	-0.1040541
176	0xbd08e6a7	-0.033423092
177	0xbd4c826c	-0.049929067
178	0x3dc92c75	0.09822933
179	0xbd7ddeaa	-0.061979927
180	0xbe459260	-0.19294119
181	0xba2ad5ce	-0.0006516845
182	0x3d114d6d	0.03547423
183	0xbe09a87b	-0.13443176
184	0x3e0211a2	0.12702039
185	0xbd990e2c	-0.07473406
186	0xbc6ada8e	-0.014334334
187	0xbd683623	-0.056692254
188	0xbd45597d	-0.048181046
189	0x3e057222	0.1303182
190	0x3d9e066c	0.077160686
191	0xbde971fd	-0.11398695
192	0xbf03d25b	-0.5149285
193	0xbf2f742c	-0.6853664
194	0xbf0c6b8f	-0.5485162
195	0xbf599f83	-0.8500902
196	0xbe16ae97	-0.14715038
197	0xbf00eac3	-0.5035822
198	0xbeb9e1a5	-0.36304966
199	0xbf1f373f	-0.62193674
200	0xbecdfa4f	-0.40230033
201	0xbf17f6ee	-0.5936116
202	0xbf0a821b	-0.54104775
203	0x3e5017e2	0.2032161
204	0xbf561bc6	-0.8363613
205	0xbd8df10e	-0.06930743
206	0xbf03ed37	-0.51533836
207	0xbf29d0de	-0.6633433
208	0x3f6b83d4	0.9199803
209	0xbf2acc82	-0.66718304
210	0xbedd82fc	-0.43263996
211	0x3f77c8f6	0.9679102
212	0xbf833c3e	-1.025276
213	0xbea472e2	-0.321189
214	0xbf48881c	-0.78332686
215	0xbf1426a6	-0.5787147
216	0xbf299df8	-0.66256666
217	0xbf01a736	-0.5064577
218	0xbeb26bac	-0.34847772
219	0xbf277d08	-0.6542516
220	0xbf316e63	-0.6930906
221	0xbf002e45	-0.500706
222	0xbeefe7b3	-0.4685646
223	0xbf34d144	-0.70631814
224	0xbf29a0c8	-0.6626096
225	0xbf2f65de	-0.6851481
226	0x3e1f9310	0.15583444
227	0xbf4e246f	-0.80524343
228	0xbe39348b	-0.1808645
229	0xbf086819	-0.5328384
230	0xbf09c74c	-0.5381973
231	0xbf69367e	-0.91098773
232	0xbf11188c	-0.5667808
233	0xbf294ed1	-0.6613589
234	0xbf3ac326	-0.7295402
235	0xbf343b5c	-0.70403075
236	0xbea922a6	-0.33034247
237	0xbf20ef62	-0.6286527
238	0xbeecba5e	-0.46235937
239	0xbf83ffdf	-1.0312461
240	0xbed6f768	-0.4198563
241	0xbf1d30d3	-0.61402625
242	0xbf31f99b	-0.6952149
243	0xbf73ab5f	-0.95183367
244	0xbf05dba3	-0.52288264
245	0xbedf8740	-0.43657875
246	0x3ec502ca	0.3847869
247	0xbee96376	-0.45583695
248	0xbf4d3c3f	-0.80170053
249	0xbed8a50a	-0.42313415
250	0xbf6599e1	-0.89687926
251	0x3e552a9f	0.2081704
252	0xbf20a922	-0.62758076
253	0xbf35a074	-0.7094796
254	0x3dc7c13d	0.09753654
255	0xbf22d52c	-0.63606524

sequential_1/dense_3/MatMul;sequential_1/dense_3/BiasAdd f4 [22]
0	0x402ed28d	2.731601
1	0xbfc4d6e3	-1.5378078
2	0xbdba295a	-0.090899184
3	0xc006ddfd	-2.107299
4	0x3fdc6d90	1.7220936
5	0x40863010	4.193367
6	0x40ee4e0a	7.4470263
7	0x3faa807e	1.3320463
8	0x402bc365	2.683801
9	0xc01e6e15	-2.4754689
10	0x40597503	3.3977668
11	0x406536f4	3.581479
12	0x4035967f	2.8373106
13	0x40a295c3	5.0807815
14	0x3fa18aeb	1.2620519
15	0x400b4452	2.176045
16	0xbfaf0743	-1.3674091
17	0x4051b460	3.2766342
18	0x40792123	3.8926475
19	0x40850152	4.156411
20	0x409818ad	4.753012
21	0x402ebf9d	2.7304451

sequential_1/batch_normalization_1/batchnorm/mul_1;sequential_1/batch_normalization_1/batchnorm/add_1;sequential_1/dense_3/MatMul;sequential_1/dense_3/BiasAdd i1 [22, 64] scale=0.04120073 zero_point=0
0	0x0c	0.4944088
1	0x01	0.04120073
2	0xd8	-1.6480292
3	0xdd	-1.4420255
4	0x14	0.8240146
5	0xea	-0.90641606
6	0x16	0.90641606
7	0x1a	1.071219
8	0x05	0.20600365
9	0xeb	-0.86521536
10	0xfb	-0.20600365
11	0xe7	-1.0300183
12	0x0d	0.5356095
13	0xfc	-0.16480292
14	0xd8	-1.6480292
15	0x1d	1.1948212
16	0x04	0.16480292
17	0x3e	2.5544453
18	0x0c	0.4944088
19	0xf7	-0.37080657
20	0xea	-0.90641606
21	0xfd	-0.1236022
22	0x0f	0.61801094
23	0xea	-0.90641606
24	0xf7	-0.37080657
25	0x15	0.86521536
26	0x0e	0.57681024
27	0xe9	-0.9476168
28	0x44	2.8016498
29	0xe4	-1.1536205
30	0xd7	-1.68923
31	0xfe	-0.08240146
32	0xda	-1.5656278
33	0xee	-0.74161315
34	0xd4	-1.8128321
35	0xe6	-1.071219
36	0x0b	0.45320803
37	0xbe	-2.7192483
38	0xe3	-1.1948212
39	0xfb	-0.20600365
40	0x15	0.86521536
41	0x0d	0.5356095
42	0xff	-0.04120073
43	0xfc	-0.16480292
44	0xe6	-1.071219
45	0x11	0.70041245
46	0x00	0.0
47	0xee	-0.74161315
48	0xfd	-0.1236022
49	0xee	-0.74161315
50	0xe4	-1.1536205
51	0x06	0.2472044
52	0x0d	0.5356095
53	0xcb	-2.1836388
54	0x00	0.0
55	0xe7	-1.0300183
56	0x03	0.1236022
57	0x01	0.04120073
58	0x08	0.32960585
59	0xf9	-0.28840512
60	0xfc	-0.16480292
61	0xe9	-0.9476168
62	0x04	0.16480292
63	0xe0	-1.3184234
64	0xed	-0.7828139
65	0x07	0.28840512
66	0xf9	-0.28840512
67	0x23	1.4420255
68	0xd6	-1.7304307
69	0x1e	1.2360219
70	0x17	0.9476168
71	0xd3	-1.8540329
72	0xf3	-0.5356095
73	0x07	0.28840512
74	0xf8	-0.32960585
75	0xfb	-0.20600365
76	0x1d	1.1948212
77	0xe7	-1.0300183
78	0xf5	-0.45320803
79	0x04	0.16480292
80	0xfe	-0.08240146
81	0xda	-1.5656278
82	0xe1	-1.2772226
83	0x12	0.74161315
84	0x15	0.86521536
85	0x07	0.28840512
86	0xfd	-0.1236022
87	0xff	-0.04120073
88	0x01	0.04120073
89	0xd6	-1.7304307
90	0x13	0.7828139
91	0xf1	-0.61801094
92	0x05	0.20600365
93	0x0e	0.57681024
94	0xda	-1.5656278
95	0xff	-0.04120073
96	0x14	0.8240146
97	0x01	0.04120073
98	0x06	0.2472044
99	0x15	0.86521536
100	0x07	0.28840512
101	0xd6	-1.7304307
102	0x1b	1.1124197
103	0xed	-0.7828139
104	0x0f	0.61801094
105	0xfd	-0.1236022
106	0xfc	-0.16480292
107	0xee	-0.74161315
108	0x07	0.28840512
109	0x08	0.32960585
110	0xf8	-0.32960585
111	0x02	0.08240146
112	0x0b	0.45320803
113	0xd8	-1.6480292
114	0x07	0.28840512
115	0xf6	-0.4120073
116	0x02	0.08240146
117	0xe1	-1.2772226
118	0xfa	-0.2472044
119	0xec	-0.8240146
120	0xf5	-0.45320803
121	0x01	0.04120073
122	0xe7	-1.0300183
123	0xdb	-1.524427
124	0x20	1.3184234
125	0xed	-0.7828139
126	0xf6	-0.4120073
127	0xf9	-0.28840512
128	0x2d	1.8540329
129	0xde	-1.4008249
130	0xf2	-0.57681024
131	0xf5	-0.45320803
132	0x10	0.6592117
133	0xf4	-0.4944088
134	0x02	0.08240146
135	0xea	-0.90641606
136	0xed	-0.7828139
137	0xf9	-0.28840512
138	0x0d	0.5356095
139	0xa4	-3.7904673
140	0x24	1.4832263
141	0xdd	-1.4420255
142	0x04	0.16480292
143	0x15	0.86521536
144	0xf2	-0.57681024
145	0x00	0.0
146	0x00	0.0
147	0xe9	-0.9476168
148	0x1c	1.1536205
149	0xfd	-0.1236022
150	0x02	0.08240146
151	0xf5	-0.45320803
152	0x09	0.37080657
153	0xd7	-1.68923
154	0x07	0.28840512
155	0xf3	-0.5356095
156	0xdf	-1.3596241
157	0xf0	-0.6592117
158	0x02	0.08240146
159	0x02	0.08240146
160	0x0d	0.5356095
161	0xce	-2.0600367
162	0x0e	0.57681024
163	0x1e	1.2360219
164	0xd9	-1.6068285
165	0x0b	0.45320803
166	0xf0	-0.6592117
167	0x16	0.90641606
168	0x0e	0.57681024
169	0x05	0.20600365
170	0xea	-0.90641606
171	0xfe	-0.08240146
172	0xf7	-0.37080657
173	0x14	0.8240146
174	0x16	0.90641606
175	0xf6	-0.4120073
176	0x0b	0.45320803
177	0x03	0.1236022
178	0xf5	-0.45320803
179	0x05	0.20600365
180	0xe8	-0.9888176
181	0x0d	0.5356095
182	0xdf	-1.3596241
183	0xf8	-0.32960585
184	0x0f	0.61801094
185	0xe8	-0.9888176
186	0x0e	0.57681024
187	0xf1	-0.61801094
188	0xed	-0.7828139
189	0x0b	0.45320803
190	0x0c	0.4944088
191	0x03	0.1236022
192	0xf3	-0.5356095
193	0x0a	0.4120073
194	0x06	0.2472044
195	0x08	0.32960585
196	0x0b	0.45320803
197	0xee	-0.74161315
198	0x0c	0.4944088
199	0x04	0.16480292
200	0x09	0.37080657
201	0x03	0.1236022
202	0x19	1.0300183
203	0xac	-3.4608614
204	0x14	0.8240146
205	0x0b	0.45320803
206	0xe3	-1.1948212
207	0x18	0.9888176
208	0x18	0.9888176
209	0xde	-1.4008249
210	0xff	-0.04120073
211	0xfd	-0.1236022
212	0x0c	0.4944088
213	0x1f	1.2772226
214	0x09	0.37080657
215	0xf0	-0.6592117
216	0xe9	-0.9476168
217	0x0e	0.57681024
218	0x08	0.32960585
219	0xfc	-0.16480292
220	0x03	0.1236022
221	0xf9	-0.28840512
222	0xd8	-1.6480292
223	0x00	0.0
224	0xf7	-0.37080657
225	0xe7	-1.0300183
226	0x05	0.20600365
227	0x02	0.08240146
228	0xeb	-0.86521536
229	0xce	-2.0600367
230	0xe5	-1.1124197
231	0xea	-0.90641606
232	0xbe	-2.7192483
233	0x1e	1.2360219
234	0x05	0.20600365
235	0xec	-0.8240146
236	0xe4	-1.1536205
237	0x09	0.37080657
238	0x00	0.0
239	0x02	0.08240146
240	0x18	0.9888176
241	0xeb	-0.86521536
242	0xf0	-0.6592117
243	0x13	0.7828139
244	0xdf	-1.3596241
245	0x0c	0.4944088
246	0x0c	0.4944088
247	0xf2	-0.57681024
248	0x0d	0.5356095
249	0xe5	-1.1124197
250	0x1f	1.2772226
251	0x0d	0.5356095
252	0x06	0.2472044
253	0xe8	-0.9888176
254	0xdd	-1.4420255
255	0xf1	-0.61801094

sequential_1/dense_2/MatMul i1 [64, 64] scale=0.026202464 zero_point=0
0	0xe4	-0.733669
1	0xee	-0.47164437
2	0x01	0.026202464
3	0x02	0.05240493
4	0x05	0.13101232
5	0xf0	-0.41923943
6	0xfa	-0.15721479
7	0xf9	-0.18341725
8	0x00	0.0
9	0x04	0.10480986
10	0x0b	0.2882271
11	0x02	0.05240493
12	0xf9	-0.18341725
13	0x03	0.078607395
14	0xfe	-0.05240493
15	0xfa	-0.15721479
16	0xeb	-0.5502518
17	0xfe	-0.05240493
18	0x06	0.15721479
19	0x02	0.05240493
20	0xf5	-0.2882271
21	0xf6	-0.26202464
22	0xe6	-0.6812641
23	0xf7	-0.23582219
24	0x15	0.5502518
25	0x0c	0.31442958
26	0xf6	-0.26202464
27	0x03	0.078607395
28	0x0a	0.26202464
29	0xf8	-0.20961972
30	0x1e	0.7860739
31	0xf5	-0.2882271
32	0x02	0.05240493
33	0xff	-0.026202464
34	0xfc	-0.10480986
35	0x04	0.10480986
36	0xf3	-0.34063205
37	0xf9	-0.18341725
38	0xf5	-0.2882271
39	0xfc	-0.10480986
40	0x0e	0.3668345
41	0xe7	-0.6550616
42	0xfd	-0.078607395
43	0xee	-0.47164437
44	0x06	0.15721479
45	0xfd	-0.078607395
46	0x13	0.4978468
47	0x15	0.5502518
48	0x10	0.41923943
49	0xce	-1.3101232
50	0x00	0.0
51	0xfd	-0.078607395
52	0x01	0.026202464
53	0x27	1.0218961
54	0x23	0.91708624
55	0xf9	-0.18341725
56	0xfd	-0.078607395
57	0x13	0.4978468
58	0x02	0.05240493
59	0xec	-0.5240493
60	0x0f	0.39303696
61	0xfc	-0.10480986
62	0xde	-0.8908838
63	0x19	0.6550616
64	0x00	0.0
65	0xff	-0.026202464
66	0xec	-0.5240493
67	0xf8	-0.20961972
68	0xf8	-0.20961972
69	0xfb	-0.13101232
70	0xf4	-0.31442958
71	0x00	0.0
72	0x04	0.10480986
73	0xf5	-0.2882271
74	0xf9	-0.18341725
75	0xed	-0.4978468
76	0x0a	0.26202464
77	0xfc	-0.10480986
78	0xe7	-0.6550616
79	0x06	0.15721479
80	0x54	2.2010071
81	0xf5	-0.2882271
82	0xfb	-0.13101232
83	0x23	0.91708624
84	0x1f	0.8122764
85	0x17	0.60265666
86	0x08	0.20961972
87	0x0d	0.34063205
88	0x09	0.23582219
89	0xfe	-0.05240493
90	0x03	0.078607395
91	0xfe	-0.05240493
92	0x0f	0.39303696
93	0xfd	-0.078607395
94	0xfd	-0.078607395
95	0x06	0.15721479
96	0xfd	-0.078607395
97	0xf0	-0.41923943
98	0x10	0.41923943
99	0xf4	-0.31442958
100	0x0c	0.31442958
101	0xfd	-0.078607395
102	0x06	0.15721479
103	0x08	0.20961972
104	0xfc	-0.10480986
105	0xfe	-0.05240493
106	0x00	0.0
107	0x01	0.026202464
108	0x06	0.15721479
109	0xfc	-0.10480986
110	0xfb	-0.13101232
111	0xfd	-0.078607395
112	0x0d	0.34063205
113	0xfd	-0.078607395
114	0xf3	-0.34063205
115	0x00	0.0
116	0x04	0.10480986
117	0x00	0.0
118	0x53	2.1748044
119	0x02	0.05240493
120	0xfd	-0.078607395
121	0x02	0.05240493
122	0xfa	-0.15721479
123	0x06	0.15721479
124	0xe1	-0.8122764
125	0x06	0.15721479
126	0x0e	0.3668345
127	0xd2	-1.2053133
128	0x13	0.4978468
129	0x02	0.05240493
130	0xf9	-0.18341725
131	0x01	0.026202464
132	0x26	0.9956936
133	0xf9	-0.18341725
134	0x0b	0.2882271
135	0x06	0.15721479
136	0x05	0.13101232
137	0x0f	0.39303696
138	0x10	0.41923943
139	0xe7	-0.6550616
140	0x08	0.20961972
141	0x11	0.4454419
142	0x10	0.41923943
143	0x00	0.0
144	0x14	0.5240493
145	0x0b	0.2882271
146	0xf9	-0.18341725
147	0x32	1.3101232
148	0x1c	0.733669
149	0x05	0.13101232
150	0xf8	-0.20961972
151	0x0d	0.34063205
152	0x0a	0.26202464
153	0xf4	-0.31442958
154	0xed	-0.4978468
155	0xfe	-0.05240493
156	0xed	-0.4978468
157	0x0c	0.31442958
158	0xe2	-0.7860739
159	0xf3	-0.34063205
160	0xf6	-0.26202464
161	0x0d	0.34063205
162	0x18	0.62885916
163	0x06	0.15721479
164	0xfe	-0.05240493
165	0xfc	-0.10480986
166	0xf9	-0.18341725
167	0xfd	-0.078607395
168	0x12	0.47164437
169	0x00	0.0
170	0x03	0.078607395
171	0xf6	-0.26202464
172	0xf7	-0.23582219
173	0x04	0.10480986
174	0x03	0.078607395
175	0x08	0.20961972
176	0x04	0.10480986
177	0xbd	-1.7555652
178	0xf3	-0.34063205
179	0x02	0.05240493
180	0xf5	-0.2882271
181	0xf5	-0.2882271
182	0x12	0.47164437
183	0x00	0.0
184	0xff	-0.026202464
185	0x0c	0.31442958
186	0x02	0.05240493
187	0xfc	-0.10480986
188	0x18	0.62885916
189	0x06	0.15721479
190	0x0a	0.26202464
191	0xe9	-0.60265666
192	0xf7	-0.23582219
193	0xfe	-0.05240493
194	0xf3	-0.34063205
195	0xf9	-0.18341725
196	0xdc	-0.94328874
197	0xfa	-0.15721479
198	0xeb	-0.5502518
199	0x09	0.23582219
200	0x20	0.83847886
201	0xfd	-0.078607395
202	0x08	0.20961972
203	0x09	0.23582219
204	0x20	0.83847886
205	0xe9	-0.60265666
206	0x13	0.4978468
207	0xfd	-0.078607395
208	0x10	0.41923943
209	0x05	0.13101232
210	0xed	-0.4978468
211	0xe7	-0.6550616
212	0xeb	-0.5502518
213	0x20	0.83847886
214	0x03	0.078607395
215	0x03	0.078607395
216	0x02	0.05240493
217	0x30	1.2577183
218	0x0b	0.2882271
219	0xe7	-0.6550616
220	0xf5	-0.2882271
221	0x05	0.13101232
222	0x0c	0.31442958
223	0x02	0.05240493
224	0xff	-0.026202464
225	0xfd	-0.078607395
226	0x08	0.20961972
227	0xff	-0.026202464
228	0x16	0.5764542
229	0xf4	-0.31442958
230	0x07	0.18341725
231	0xf7	-0.23582219
232	0x04	0.10480986
233	0xfe	-0.05240493
234	0xec	-0.5240493
235	0x05	0.13101232
236	0x02	0.05240493
237	0xee	-0.47164437
238	0x0a	0.26202464
239	0x0f	0.39303696
240	0x06	0.15721479
241	0x00	0.0
242	0xec	-0.5240493
243	0x01	0.026202464
244	0x0b	0.2882271
245	0x11	0.4454419
246	0x17	0.60265666
247	0x04	0.10480986
248	0xfe	-0.05240493
249	0xd0	-1.2577183
250	0xfd	-0.078607395
251	0xf9	-0.18341725
252	0xf7	-0.23582219
253	0xf4	-0.31442958
254	0xef	-0.4454419
255	0xf0	-0.41923943

sequential_1/lstm_1/Read_2/ReadVariableOp1 f4 [256]
0	0xbf1fe59b	-0.62459725
1	0xbf2b4757	-0.6690573
2	0xbf75c48b	-0.96003026
3	0xbf09675e	-0.5367335
4	0xbd76ee68	-0.060285956
5	0xbf29d6db	-0.6634347
6	0xbebec543	-0.37259874
7	0xbefdbd3f	-0.49558446
8	0xbf431c63	-0.7621519
9	0xbf31ab78	-0.69402266
10	0xbea67a38	-0.3251512
11	0x3d6ecdbb	0.05830167
12	0xbf14eac7	-0.5817074
13	0x3e057e7e	0.13036534
14	0xbf02cf02	-0.5109712
15	0xbf7f6e5f	-0.9977779
16	0x3f17e81b	0.5933854
17	0xbf2b24bf	-0.66852945
18	0xbe891731	-0.26775506
19	0x3f51416b	0.81740445
20	0xbf8f34ff	-1.1188048
21	0x3ddd2e23	0.107998155
22	0xbf35cb8b	-0.71013707
23	0xbf5e30a4	-0.8679297
24	0xbf716a11	-0.9430247
25	0xbed9c9d5	-0.42536798
26	0xbf000fcc	-0.50024104
27	0xbf104a54	-0.56363416
28	0xbf5667ff	-0.83752435
29	0xbebfb533	-0.37442932
30	0xbf0ecf87	-0.5578541
31	0xbf650175	-0.8945535
32	0xbf4f3fc0	-0.8095665
33	0xbf3eb1de	-0.74490154
34	0xbf1ad342	-0.60478604
35	0xbf4f9c4f	-0.81097883
36	0xbef509e0	-0.47859097
37	0xbf51ed2c	-0.8200252
38	0x3c0ede7f	0.008720039
39	0xbf7f698f	-0.99770445
40	0xbf25670b	-0.64610356
41	0xbf338538	-0.7012515
42	0xbf538ced	-0.8263691
43	0xbf357264	-0.7087767
44	0xbf8a4fae	-1.0805566
45	0xbf593375	-0.8484414
46	0xbf187534	-0.5955384
47	0xbf7fd4ac	-0.99933887
48	0xbf60faed	-0.8788288
49	0xbf1e0f39	-0.6174198
50	0xbf1e9b3c	-0.6195562
51	0xbf54bb97	-0.8309874
52	0xbf82a092	-1.0205252
53	0xbf3ad0d2	-0.72974885
54	0x3f06a6aa	0.5259806
55	0xbf495471	-0.7864447
56	0xbf800d7e	-1.0004117
57	0xbeaae435	-0.33377233
58	0xbf08075d	-0.53136235
59	0x3d62634b	0.055270474
60	0xbf5d3f66	-0.86424863
61	0xbf66adcc	-0.90108943
62	0x3e08f4ca	0.1337463
63	0xbf0451d8	-0.51687384
64	0x3fbabad2	1.4588263
65	0x3f986298	1.1905088
66	0x3f9d4da0	1.2289314
67	0x3faf077a	1.3674157
68	0x3dcff537	0.10154193
69	0x3faa1f4b	1.32908
70	0x3f072950	0.5279741
71	0x3f6c75db	0.92367333
72	0x3faefbe7	1.3670624
73	0x3f66c49d	0.9014376
74	0x3f86f00e	1.0542009
75	0x3f263e5f	0.6493892
76	0x3f46a376	0.7759317
77	0x3ed4cc5d	0.41562167
78	0x3f821088	1.0161295
79	0x3fa075fd	1.2536007
80	0x3f20b718	0.6277938
81	0x3f97f106	1.187043
82	0x3f515581	0.81771094
83	0x3f19d5b1	0.6009169
84	0x3ed09936	0.4074189
85	0x3ea43275	0.32069746
86	0x3fbc5f44	1.4716573
87	0x3f6c3a6f	0.9227666
88	0x3f7228a8	0.94593287
89	0x3f8f1ff9	1.1181632
90	0x3f7b5849	0.9818159
91	0x3f9f57ae	1.2448633
92	0x3f4afa5d	0.79288274
93	0x3f97b420	1.1851845
94	0x3f2cf830	0.67566204
95	0x3f7e98b4	0.99451756
96	0x3f83c30f	1.0293902
97	0x3f8f6911	1.1203939
98	0x3e955d98	0.2917297
99	0x3f98f1b9	1.1948768
100	0x3f6a62df	0.91557115
101	0x3f4547a4	0.7706244
102	0x3fa69978	1.3015585
103	0x3fb66025	1.4248091
104	0x3f8eb2a4	1.1148267
105	0x3f88da2d	1.0691582
106	0x3f6cea29	0.925448
107	0x3f223188	0.6335683
108	0x3f17f646	0.5936016
109	0x3fcb0a2f	1.5862483
110	0x3f8a703c	1.0815501
111	0x3faa8dec	1.3324561
112	0x3f3a2b05	0.7272189
113	0x3f4b23b0	0.7935133
114	0x3f4c5998	0.7982421
115	0x3f8f57c1	1.1198655
116	0x3fa54320	1.291111
117	0x3f2a16fe	0.66441333
118	0x3efddd36	0.49582833
119	0x3f786022	0.9702169
120	0x3f93741b	1.1519808
121	0x3f2375e8	0.63851786
122	0x3fa017ea	1.2507298
123	0x3e42c301	0.190197
124	0x3f31ea87	0.69498485
125	0x3f077089	0.5290609
126	0x3f0845c4	0.53231454
127	0x3f691737	0.9105105
128	0x3d19de3f	0.037565466
129	0x3dcf224d	0.10113964
130	0x3d00d403	0.03145219
131	0x3d79699c	0.060891733
132	0x3e321ab1	0.17392994
133	0x3d11c9d4	0.03559287
134	0x3e329c82	0.17442515
135	0x3d9cfe35	0.07665674
136	0xbc7431d5	-0.014904459
137	0xbe41b9e9	-0.18918575
138	0x3dfdc109	0.12390334
139	0x3ce366b1	0.027758928
140	0xbddcdf5c	-0.1078479
141	0xbb3aa79c	-0.002848125
142	0xbe32fd66	-0.17479476
143	0x3daf7a38	0.08568233
144	0xbccbc0c1	-0.024872186
145	0xbe705fe6	-0.23474082
146	0x3d4f3348	0.050586015
147	0xbcb548b6	-0.022129398
148	0x3e2ded76	0.16985115
149	0x3d33856f	0.043828424
150	0xbddbd0cc	-0.10733184
151	0xbd76be76	-0.06024023
152	0x3db3bb2d	0.08775935
153	0xbe1b2381	-0.15150262
154	0xbdfb36bc	-0.12266299
155	0x3d8beb85	0.06832031
156	0x3d4d7a45	0.050165433
157	0xbd90cd3e	-0.07070397
158	0x3d02ad7f	0.03190374
159	0xbd57116d	-0.052506853
160	0xbd0307aa	-0.03198973
161	0x3d2208d5	0.039559204
162	0x3df606cb	0.120130144
163	0xbde3159f	-0.11088108
164	0x3defc3a6	0.11707239
165	0xbc082bb9	-0.008311206
166	0xbdf7cf4a	-0.12100084
167	0x3de3af29	0.111173935
168	0xbdff51b7	-0.12466758
169	0x3de7641b	0.112983905
170	0x3c3eec3f	0.011653005
171	0xbe445206	-0.19171914
172	0x3ddef13f	0.10885858
173	0x3bd593b6	0.0065178527
174	0xbe172047	-0.14758407
175	0xbdd51a51	-0.1040541
176	0xbd08e6a7	-0.033423092
177	0xbd4c826c	-0.049929067
178	0x3dc92c75	0.09822933
179	0xbd7ddeaa	-0.061979927
180	0xbe459260	-0.19294119
181	0xba2ad5ce	-0.0006516845
182	0x3d114d6d	0.03547423
183	0xbe09a87b	-0.13443176
184	0x3e0211a2	0.12702039
185	0xbd990e2c	-0.07473406
186	0xbc6ada8e	-0.014334334
187	0xbd683623	-0.056692254
188	0xbd45597d	-0.048181046
189	0x3e057222	0.1303182
190	0x3d9e066c	0.077160686
191	0xbde971fd	-0.11398695
192	0xbf03d25b	-0.5149285
193	0xbf2f742c	-0.6853664
194	0xbf0c6b8f	-0.5485162
195	0xbf599f83	-0.8500902
196	0xbe16ae97	-0.14715038
197	0xbf00eac3	-0.5035822
198	0xbeb9e1a5	-0.36304966
199	0xbf1f373f	-0.62193674
200	0xbecdfa4f	-0.40230033
201	0xbf17f6ee	-0.5936116
202	0xbf0a821b	-0.54104775
203	0x3e5017e2	0.2032161
204	0xbf561bc6	-0.8363613
205	0xbd8df10e	-0.06930743
206	0xbf03ed37	-0.51533836
207	0xbf29d0de	-0.6633433
208	0x3f6b83d4	0.9199803
209	0xbf2acc82	-0.66718304
210	0xbedd82fc	-0.43263996
211	0x3f77c8f6	0.9679102
212	0xbf833c3e	-1.025276
213	0xbea472e2	-0.321189
214	0xbf48881c	-0.78332686
215	0xbf1426a6	-0.5787147
216	0xbf299df8	-0.66256666
217	0xbf01a736	-0.5064577
218	0xbeb26bac	-0.34847772
219	0xbf277d08	-0.6542516
220	0xbf316e63	-0.6930906
221	0xbf002e45	-0.500706
222	0xbeefe7b3	-0.4685646
223	0xbf34d144	-0.70631814
224	0xbf29a0c8	-0.6626096
225	0xbf2f65de	-0.6851481
226	0x3e1f9310	0.15583444
227	0xbf4e246f	-0.80524343
228	0xbe39348b	-0.1808645
229	0xbf086819	-0.5328384
230	0xbf09c74c	-0.5381973
231	0xbf69367e	-0.91098773
232	0xbf11188c	-0.5667808
233	0xbf294ed1	-0.6613589
234	0xbf3ac326	-0.7295402
235	0xbf343b5c	-0.70403075
236	0xbea922a6	-0.33034247
237	0xbf20ef62	-0.6286527
238	0xbeecba5e	-0.46235937
239	0xbf83ffdf	-1.0312461
240	0xbed6f768	-0.4198563
241	0xbf1d30d3	-0.61402625
242	0xbf31f99b	-0.6952149
243	0xbf73ab5f	-0.95183367
244	0xbf05dba3	-0.52288264
245	0xbedf8740	-0.43657875
246	0x3ec502ca	0.3847869
247	0xbee96376	-0.45583695
248	0xbf4d3c3f	-0.80170053
249	0xbed8a50a	-0.42313415
250	0xbf6599e1	-0.89687926
251	0x3e552a9f	0.2081704
252	0xbf20a922	-0.62758076
253	0xbf35a074	-0.7094796
254	0x3dc7c13d	0.09753654
255	0xbf22d52c	-0.63606524

while/MatMul_11 i1 [256, 64] scale=0.024661379 zero_point=0
0	0x0e	0.3452593
1	0x00	0.0
2	0x09	0.22195241
3	0xff	-0.024661379
4	0xe4	-0.6905186
5	0xf4	-0.29593655
6	0xe8	-0.5918731
7	0x0a	0.24661379
8	0x09	0.22195241
9	0xf9	-0.17262965
10	0xcb	-1.3070531
11	0x0d	0.32059792
12	0x0e	0.3452593
13	0xe1	-0.76450276
14	0x17	0.5672117
15	0x1f	0.76450276
16	0xde	-0.8384869
17	0x24	0.88780963
18	0xfd	-0.07398414
19	0xd8	-0.98645514
20	0x19	0.6165345
21	0xfc	-0.098645516
22	0xf7	-0.22195241
23	0xe4	-0.6905186
24	0x03	0.07398414
25	0xf5	-0.27127516
26	0xfe	-0.049322758
27	0x03	0.07398414
28	0xfa	-0.14796828
29	0x02	0.049322758
30	0x23	0.8631483
31	0xf4	-0.29593655
32	0x02	0.049322758
33	0x1f	0.76450276
34	0x08	0.19729103
35	0x0c	0.29593655
36	0xfb	-0.12330689
37	0xe0	-0.7891641
38	0xf1	-0.36992067
39	0xe8	-0.5918731
40	0x08	0.19729103
41	0x32	1.233069
42	0xeb	-0.51788896
43	0x0c	0.29593655
44	0xd0	-1.1837462
45	0x24	0.88780963
46	0x04	0.098645516
47	0x05	0.12330689
48	0xdb	-0.912471
49	0x15	0.51788896
50	0x0f	0.36992067
51	0x0c	0.29593655
52	0xf9	-0.17262965
53	0x1e	0.73984134
54	0xfd	-0.07398414
55	0xe2	-0.73984134
56	0x03	0.07398414
57	0x1a	0.64119583
58	0x0a	0.24661379
59	0x16	0.5425503
60	0xfb	-0.12330689
61	0xf2	-0.3452593
62	0xee	-0.44390482
63	0x1f	0.76450276
64	0x05	0.12330689
65	0xed	-0.4685662
66	0xec	-0.49322757
67	0xed	-0.4685662
68	0xd1	-1.1590848
69	0xf3	-0.32059792
70	0xf1	-0.36992067
71	0xec	-0.49322757
72	0x18	0.5918731
73	0x1a	0.64119583
74	0xf8	-0.19729103
75	0x2f	1.1590848
76	0xf6	-0.24661379
77	0x23	0.8631483
78	0x02	0.049322758
79	0x1c	0.6905186
80	0x32	1.233069
81	0x08	0.19729103
82	0xf0	-0.39458206
83	0xd7	-1.0111165
84	0x32	1.233069
85	0xf9	-0.17262965
86	0x37	1.3563758
87	0xfb	-0.12330689
88	0xfe	-0.049322758
89	0x10	0.39458206
90	0xf5	-0.27127516
91	0x15	0.51788896
92	0xfd	-0.07398414
93	0xec	-0.49322757
94	0xfe	-0.049322758
95	0x42	1.627651
96	0x0f	0.36992067
97	0x16	0.5425503
98	0x21	0.8138255
99	0xec	-0.49322757
100	0x12	0.44390482
101	0xd4	-1.0851007
102	0xfd	-0.07398414
103	0x03	0.07398414
104	0xd8	-0.98645514
105	0xed	-0.4685662
106	0xea	-0.5425503
107	0xf5	-0.27127516
108	0xe2	-0.73984134
109	0x00	0.0
110	0xe9	-0.5672117
111	0xff	-0.024661379
112	0xef	-0.41924345
113	0x27	0.9617938
114	0xe4	-0.6905186
115	0xf7	-0.22195241
116	0x03	0.07398414
117	0xef	-0.41924345
118	0x1a	0.64119583
119	0x1a	0.64119583
120	0xdf	-0.8138255
121	0x06	0.14796828
122	0x15	0.51788896
123	0x2d	1.1097621
124	0xf8	-0.19729103
125	0xe3	-0.71518
126	0xcd	-1.2577304
127	0xdb	-0.912471
128	0x01	0.024661379
129	0x19	0.6165345
130	0x06	0.14796828
131	0xf2	-0.3452593
132	0x12	0.44390482
133	0x18	0.5918731
134	0xea	-0.5425503
135	0x07	0.17262965
136	0xff	-0.024661379
137	0xfa	-0.14796828
138	0xf6	-0.24661379
139	0x06	0.14796828
140	0xf1	-0.36992067
141	0x16	0.5425503
142	0xdc	-0.88780963
143	0x01	0.024661379
144	0x48	1.7756193
145	0x16	0.5425503
146	0xe9	-0.5672117
147	0x3d	1.5043441
148	0x19	0.6165345
149	0x24	0.88780963
150	0x0f	0.36992067
151	0x12	0.44390482
152	0x1e	0.73984134
153	0x00	0.0
154	0xf8	-0.19729103
155	0x0f	0.36992067
156	0xfa	-0.14796828
157	0x01	0.024661379
158	0xee	-0.44390482
159	0x17	0.5672117
160	0x07	0.17262965
161	0x11	0.41924345
162	0x00	0.0
163	0xf1	-0.36992067
164	0x13	0.4685662
165	0x28	0.98645514
166	0x0b	0.27127516
167	0xef	-0.41924345
168	0x1a	0.64119583
169	0x07	0.17262965
170	0x07	0.17262965
171	0xf7	-0.22195241
172	0xe7	-0.6165345
173	0xe3	-0.71518
174	0xed	-0.4685662
175	0xdf	-0.8138255
176	0x20	0.7891641
177	0xfe	-0.049322758
178	0xf6	-0.24661379
179	0xf3	-0.32059792
180	0xde	-0.8384869
181	0x04	0.098645516
182	0x51	1.9975717
183	0x12	0.44390482
184	0xf0	-0.39458206
185	0x03	0.07398414
186	0x1f	0.76450276
187	0x17	0.5672117
188	0x14	0.49322757
189	0x03	0.07398414
190	0x13	0.4685662
191	0xd9	-0.9617938
192	0xfd	-0.07398414
193	0x06	0.14796828
194	0x1a	0.64119583
195	0x16	0.5425503
196	0x02	0.049322758
197	0x1b	0.66585726
198	0x1a	0.64119583
199	0xf4	-0.29593655
200	0xde	-0.8384869
201	0xed	-0.4685662
202	0x22	0.8384869
203	0x12	0.44390482
204	0xf3	-0.32059792
205	0x2a	1.0357779
206	0xce	-1.233069
207	0x22	0.8384869
208	0x12	0.44390482
209	0xee	-0.44390482
210	0xd7	-1.0111165
211	0xd4	-1.0851007
212	0xfc	-0.098645516
213	0xe8	-0.5918731
214	0x05	0.12330689
215	0x16	0.5425503
216	0xd9	-0.9617938
217	0xea	-0.5425503
218	0xf5	-0.27127516
219	0xf5	-0.27127516
220	0x03	0.07398414
221	0x1f	0.76450276
222	0xfe	-0.049322758
223	0x14	0.49322757
224	0x09	0.22195241
225	0x12	0.44390482
226	0x0b	0.27127516
227	0x00	0.0
228	0x0e	0.3452593
229	0xf4	-0.29593655
230	0xfb	-0.12330689
231	0x0e	0.3452593
232	0x0e	0.3452593
233	0x37	1.3563758
234	0xf5	-0.27127516
235	0xc3	-1.5043441
236	0xea	-0.5425503
237	0xda	-0.9371324
238	0xe0	-0.7891641
239	0xfc	-0.098645516
240	0xf7	-0.22195241
241	0x1b	0.66585726
242	0xfa	-0.14796828
243	0xdb	-0.912471
244	0xdf	-0.8138255
245	0xf9	-0.17262965
246	0xe8	-0.5918731
247	0xed	-0.4685662
248	0xfe	-0.049322758
249	0x14	0.49322757
250	0x18	0.5918731
251	0x26	0.9371324
252	0xd9	-0.9617938
253	0x14	0.49322757
254	0xf7	-0.22195241
255	0xed	-0.4685662

while/MatMul i1 [256, 12] scale=0.06460698 zero_point=0
0	0x17	1.4859605
1	0x05	0.32303488
2	0x09	0.5814628
3	0xf3	-0.8398907
4	0x06	0.38764188
5	0x01	0.06460698
6	0x07	0.45224887
7	0x01	0.06460698
8	0x04	0.25842792
9	0x07	0.45224887
10	0xfb	-0.32303488
11	0xfb	-0.32303488
12	0x07	0.45224887
13	0xf0	-1.0337117
14	0xfc	-0.25842792
15	0xf5	-0.7106768
16	0x06	0.38764188
17	0x02	0.12921396
18	0x07	0.45224887
19	0x0d	0.8398907
20	0x08	0.51685584
21	0x09	0.5814628
22	0x03	0.19382094
23	0xfe	-0.12921396
24	0xfe	-0.12921396
25	0x14	1.2921395
26	0x0e	0.90449774
27	0xfb	-0.32303488
28	0x00	0.0
29	0x0e	0.90449774
30	0x04	0.25842792
31	0x07	0.45224887
32	0x02	0.12921396
33	0x0b	0.7106768
34	0x09	0.5814628
35	0x09	0.5814628
36	0x07	0.45224887
37	0x09	0.5814628
38	0x10	1.0337117
39	0x06	0.38764188
40	0x05	0.32303488
41	0x0e	0.90449774
42	0x04	0.25842792
43	0x01	0.06460698
44	0x02	0.12921396
45	0x08	0.51685584
46	0x02	0.12921396
47	0xef	-1.0983187
48	0x09	0.5814628
49	0x18	1.5505675
50	0xfd	-0.19382094
51	0xf6	-0.64606977
52	0x0e	0.90449774
53	0xf7	-0.5814628
54	0x0e	0.90449774
55	0xf2	-0.90449774
56	0x0f	0.9691047
57	0xf6	-0.64606977
58	0x25	2.3904583
59	0xfb	-0.32303488
60	0x1a	1.6797814
61	0x07	0.45224887
62	0x07	0.45224887
63	0xfc	-0.25842792
64	0xd5	-2.7781
65	0x06	0.38764188
66	0x06	0.38764188
67	0xf8	-0.51685584
68	0x08	0.51685584
69	0x01	0.06460698
70	0x0d	0.8398907
71	0x01	0.06460698
72	0x07	0.45224887
73	0x08	0.51685584
74	0x03	0.19382094
75	0x10	1.0337117
76	0x00	0.0
77	0x08	0.51685584
78	0x05	0.32303488
79	0x0a	0.64606977
80	0xfb	-0.32303488
81	0x12	1.1629256
82	0xf4	-0.77528375
83	0x1a	1.6797814
84	0x0c	0.77528375
85	0x0a	0.64606977
86	0xf7	-0.5814628
87	0xef	-1.0983187
88	0x00	0.0
89	0x07	0.45224887
90	0xf4	-0.77528375
91	0x11	1.0983187
92	0x0c	0.77528375
93	0x0d	0.8398907
94	0xff	-0.06460698
95	0x12	1.1629256
96	0x05	0.32303488
97	0x06	0.38764188
98	0xae	-5.2977724
99	0x0e	0.90449774
100	0xea	-1.4213536
101	0x12	1.1629256
102	0xfd	-0.19382094
103	0x0c	0.77528375
104	0x1e	1.9382094
105	0x15	1.3567466
106	0x0c	0.77528375
107	0x09	0.5814628
108	0xe7	-1.6151745
109	0xee	-1.1629256
110	0x0a	0.64606977
111	0xfd	-0.19382094
112	0x0b	0.7106768
113	0x02	0.12921396
114	0x0b	0.7106768
115	0xfa	-0.38764188
116	0x27	2.5196722
117	0xfc	-0.25842792
118	0x24	2.3258512
119	0xfd	-0.19382094
120	0x12	1.1629256
121	0x1d	1.8736024
122	0x03	0.19382094
123	0x01	0.06460698
124	0x01	0.06460698
125	0x09	0.5814628
126	0x01	0.06460698
127	0x10	1.0337117
128	0xfa	-0.38764188
129	0x14	1.2921395
130	0xf7	-0.5814628
131	0x06	0.38764188
132	0x1d	1.8736024
133	0x1e	1.9382094
134	0x0e	0.90449774
135	0xf2	-0.90449774
136	0x05	0.32303488
137	0xf8	-0.51685584
138	0x0a	0.64606977
139	0xfe	-0.12921396
140	0x18	1.5505675
141	0x01	0.06460698
142	0x11	1.0983187
143	0x00	0.0
144	0xfa	-0.38764188
145	0x09	0.5814628
146	0x0b	0.7106768
147	0xef	-1.0983187
148	0x10	1.0337117
149	0xfe	-0.12921396
150	0x04	0.25842792
151	0x09	0.5814628
152	0x07	0.45224887
153	0x0a	0.64606977
154	0x06	0.38764188
155	0x00	0.0
156	0x16	1.4213536
157	0x12	1.1629256
158	0xf5	-0.7106768
159	0x05	0.32303488
160	0xe7	-1.6151745
161	0x07	0.45224887
162	0x06	0.38764188
163	0x06	0.38764188
164	0x01	0.06460698
165	0xff	-0.06460698
166	0x03	0.19382094
167	0x02	0.12921396
168	0x09	0.5814628
169	0x0e	0.90449774
170	0x0f	0.9691047
171	0x13	1.2275326
172	0xf2	-0.90449774
173	0xf2	-0.90449774
174	0x0a	0.64606977
175	0x06	0.38764188
176	0x16	1.4213536
177	0x08	0.51685584
178	0x0e	0.90449774
179	0x03	0.19382094
180	0x0b	0.7106768
181	0x10	1.0337117
182	0xc7	-3.6825979
183	0x08	0.51685584
184	0x05	0.32303488
185	0x05	0.32303488
186	0x12	1.1629256
187	0x0a	0.64606977
188	0x12	1.1629256
189	0x00	0.0
190	0x0c	0.77528375
191	0x08	0.51685584
192	0x0e	0.90449774
193	0x2b	2.7781
194	0x02	0.12921396
195	0xf8	-0.51685584
196	0x06	0.38764188
197	0xfb	-0.32303488
198	0x08	0.51685584
199	0xfd	-0.19382094
200	0x09	0.5814628
201	0xfc	-0.25842792
202	0x0d	0.8398907
203	0xf9	-0.45224887
204	0x08	0.51685584
205	0x1a	1.6797814
206	0x0c	0.77528375
207	0x1d	1.8736024
208	0x11	1.0983187
209	0xe3	-1.8736024
210	0x12	1.1629256
211	0x04	0.25842792
212	0x0a	0.64606977
213	0x1a	1.6797814
214	0xf7	-0.5814628
215	0x12	1.1629256
216	0xff	-0.06460698
217	0x04	0.25842792
218	0x17	1.4859605
219	0x0c	0.77528375
220	0x18	1.5505675
221	0x0b	0.7106768
222	0x04	0.25842792
223	0x13	1.2275326
224	0x0b	0.7106768
225	0x27	2.5196722
226	0xf4	-0.77528375
227	0x0f	0.9691047
228	0x13	1.2275326
229	0x3f	4.0702395
230	0x0c	0.77528375
231	0xfc	-0.25842792
232	0x09	0.5814628
233	0xff	-0.06460698
234	0x08	0.51685584
235	0xfd	-0.19382094
236	0xf7	-0.5814628
237	0xfb	-0.32303488
238	0x12	1.1629256
239	0xe6	-1.6797814
240	0xf9	-0.45224887
241	0xf4	-0.77528375
242	0xfa	-0.38764188
243	0x03	0.19382094
244	0xfb	-0.32303488
245	0xf8	-0.51685584
246	0x05	0.32303488
247	0xf4	-0.77528375
248	0x06	0.38764188
249	0xf4	-0.77528375
250	0x06	0.38764188
251	0xf9	-0.45224887
252	0x17	1.4859605
253	0x0b	0.7106768
254	0x0b	0.7106768
255	0x0d	0.8398907
