android/app/src/main/assets/model_dynamic_m.tflite (tflite, 38464 bytes, 8 tensors)

sequential_1/dense_2/BiasAdd/ReadVariableOp f4 [64]
00000000: cea6 5ebc 820c a1be 8a5f fdbe 9b70 21be
00000010: e549 1a3e 9294 813e c9c2 bb3c 2723 7abe
00000020: c224 453d 3229 1e3e 5bd8 a93d a15e 9bbd
00000030: 86fb 703e a66c 293e e624 aa3d 9ea2 053f
00000040: 9649 803e 002d fabd b58b cc3e 0f72 90bc
00000050: c4a3 3ebd b271 e8be 01b1 bebd d206 b1bd
00000060: 7512 e43a 1b5f fe3d e96d f93e a31b c2bd
00000070: 650c e53d 6a0f 4dbd 1c2f d83c 0d9a e83d
00000080: e9ed da3d cbd6 293e cbaa 4e3c 7b56 45be
00000090: 69bb 783e d455 64bd bfbc de3d 13d8 aabc
000000a0: 139d 093d 8123 42be 641f d43e 46fe 273f
000000b0: 99b3 783e 8241 d5bd 71ac 94be 7c91 ac3c
000000c0: be03 073e 461c 86be 7a96 973d bfb7 e5bd
000000d0: 4cc0 babe f72c 74be ccc9 823e ae31 313e
000000e0: 6f40 09bf 62f9 4bbd 8e6e d13e 6cc1 2b3e
000000f0: 03a1 85be c4e8 a2bb 09aa 963c 0ed0 7b3e
-0.013589574 -0.31454855 -0.49486953 -0.15765612 0.15067251 0.25308663 0.02292003 -0.24427472
0.048130758 0.15445402 0.0829322 -0.075864084 0.23533449 0.16545352 0.08307819 0.5220126
0.25056142 -0.12215614 0.39950338 -0.017632512 -0.046542898 -0.45399243 -0.093111046 -0.08643879
0.001740052 0.12420484 0.48716667 -0.094779275 0.11184005 -0.050063528 0.026389651 0.11357508
0.10689909 0.16585843 0.012613962 -0.19271271 0.24290241 -0.055745915 0.10875844 -0.020854985
0.033597063 -0.18958856 0.414302 0.65622365 0.24287261 -0.10412885 -0.29037812 0.021065466
0.13185021 -0.26193446 0.07401748 -0.112166874 -0.36474836 -0.23845278 0.25544584 0.17304108
-0.5361394 -0.049798377 0.4090466 0.16773003 -0.26099405 -0.0049715955 0.018391626 0.24591085

sequential_1/lstm_1/Read_2/ReadVariableOp f4 [256]
00000000: 1ec6 4fbf f8c6 3bbf 18d9 2fbe becb bf3d
00000010: 7045 b0be 72a3 37bf af68 a6be da51 ebbe
00000020: b6e5 acbd 4789 3dbf 571c 49bf 95ad 6cbf
00000030: 9f3f 2dbf 6869 b4be feba b3be 5052 babe
00000040: 241d 06bf aa4b 26bf 5bde 5dbf 9250 0dbe
00000050: a9bb c5be f906 47bf 5b57 bebe fc2b 99bc
00000060: d6f2 1cbf de51 d7be 4f00 68bf fa1e 68bf
00000070: d146 933f 656b f9be 2541 01bf cd7f 31bf
00000080: b091 61bf daa7 3cbf 004a 37bf 2a91 22bf
00000090: 2dd9 393f bf55 03bf 4dae 22bf 93d8 0fbf
000000a0: a554 5cbd 3cb9 1dbf 0ecc 6ebf 24b2 90bf
000000b0: e3f6 cabe 4baa 33bf cfb8 3ebf 1dd5 39bf
000000c0: 4f57 0dbf f7a7 58bf c3de 7cbf 80bd 4bbf
000000d0: 13ff c1be 90b7 3bbf 82e5 4dbf d289 67bf
000000e0: bcaf 3abf 9613 1cbf 1fae 28bf a9e0 39bf
000000f0: 13e3 173e 9c4c 4ebf ed57 2cbf a13f 27bf
00000100: 007c 743f 9da6 993f b2e2 b23f a826 2a3f
00000110: af5c 133f 5f52 3d3f 53d6 d73e 6533 9b3f
00000120: 00a3 693f 6584 b93f 738a 773f e732 7e3f
00000130: 0fa2 b03f 4763 8a3f 43a9 063f adc2 9a3f
00000140: 518b bd3f 23a8 943f 6b2a 553f cc0e 2f3f
00000150: 0b9c 8f3f 2f85 113f 863d 183f a77e 703f
00000160: 2e71 7d3f 73a6 8a3f 6d72 933f 636e aa3f
00000170: 4697 333f baa4 a03f 33e6 6d3f e1c9 823f
00000180: f781 8e3f bfab e63e 64b4 963f e057 4b3f
00000190: 4d94 273f 4c52 4b3f 845a 5e3f b3fa 993f
000001a0: 5f58 063f 1a5f 3b3f c641 6e3f fe76 7c3f
000001b0: 2c2c 7d3f fe6c 6d3f 3aac 483f ea3a 203f
000001c0: 52d7 6d3f f350 973f eae9 dd3f 1928 5d3f
000001d0: 3346 eb3e 23ca 7c3f 4a78 733f 5f20 963f
000001e0: e16a 8e3f 8807 8e3f 6e71 7f3f ed4d a93f
000001f0: b345 873e dd06 653f 152a 5f3f 0f47 533f
00000200: d6b3 ce3c d270 3f3d caae 133e 7149 033e
00000210: 7fa2 33be 1421 7d3e 3b2b 2c3e 4815 16be
00000220: fb70 f73d b9e2 793d f548 6a3d 9cb0 843d
00000230: b696 c53d 0c4b 843e 04f2 81bd 44ae c7bb
00000240: df48 843d 4a4a 9cbd 7a83 023e 5138 a4bd
00000250: 54fa e83b 5316 0fbe f674 9b3d 4849 ef3d
00000260: d63a 373d 501e f0bd 8e8e f0bc f779 ac3d
00000270: 3d36 30bd b096 83bd 1aaa a1bd 1513 423d
00000280: bb28 8cbd fa98 db3b 9e2e 9fbb e420 73bd
00000290: 27f2 62bd 0ae3 143e beaf 2fbd d9e0 323d
000002a0: e500 933d f723 cabd aa12 033d f374 ac3d
000002b0: 1efa 923d 86a7 e93d c52c 48bd e88e 9e3c
000002c0: efab 3b3c c48d 1bba 5264 6cbc a1fb 1bbd
000002d0: 7837 53bc 46df 2fbd bcfd 0b3e 6d37 6e3d
000002e0: 9f77 c8bc a83b 363d 3118 dfbd dac0 81bc
000002f0: 715f 9c3d ffbb 94bd 4f20 eabc 79ca 80bc
00000300: 2072 21bf 9d25 1dbf fb25 fdbe 27df 68be
00000310: 382c 4e3c 20f4 28bf b839 d0be 711f eebe
00000320: 5252 9fbe c9a3 37bf e841 fbbe d5aa 45bf
00000330: a239 4bbf 299d f2be 73a5 03bf 0ff3 d6be
00000340: 9f63 03bf b933 40bf 4717 1bbf ae34 4cbe
00000350: bffd c9be 5da2 41bf 5ad6 aabe 1904 5abe
00000360: 6367 1ebf 548f 01bf f607 38bf fbf8 02be
00000370: f73c e93f 260c dfbe 7f07 febe 9fcd 6abf
00000380: 41ae 0bbf 9029 26bf e29c 903e 4f09 e0be
00000390: 24fa 1b3f af73 b2be 0081 27bf 0212 2abf
000003a0: c82d 5bbe f9ae cabe 3f6c babd 6aab ddbe
000003b0: 7ac4 d4be 1643 5abf 50e8 44bf e7a8 5cbf
000003c0: 3e23 edbe c60e 38bf 954f 27bf 700a 69bf
000003d0: 744f 84be 9c4c afbe 0d71 26bf 7157 5ebf
000003e0: a6a8 38bf 4649 48bf b6e7 c5be b4f7 06bf
000003f0: 4e4a a33d 42a0 d8be e04f 09bf 1c94 16bf
-0.8116168 -0.7335048 -0.17172658 0.093650326 -0.34427977 -0.7173377 -0.32501742 -0.45960885
-0.084422514 -0.74037594 -0.7855887 -0.92452365 -0.67675203 -0.3523667 -0.351036 -0.36390924
-0.52388215 -0.64959204 -0.8666741 -0.13800266 -0.38619736 -0.77745014 -0.37176022 -0.018697731
-0.6130804 -0.42054647 -0.9062547 -0.90672266 1.1505986 -0.48714748 -0.5049003 -0.69335634
-0.88112926 -0.7369362 -0.7159729 -0.6350275 0.7259701 -0.51302713 -0.6354721 -0.5618984
-0.05379166 -0.6161077 -0.9328011 -1.1304364 -0.39641485 -0.7018172 -0.74500746 -0.7259081
-0.5521135 -0.84631294 -0.9877741 -0.7958603 -0.3788992 -0.7332697 -0.80428326 -0.9044467
-0.729244 -0.60967386 -0.6589069 -0.7260843 0.14832716 -0.80585647 -0.67321664 -0.65331465
0.9550171 1.2003971 1.3975432 0.66465235 0.575633 0.73953813 0.42155704 1.2125059
0.91264343 1.4493529 0.9669563 0.9929642 1.3799456 1.0811547 0.5260202 1.209066
1.4808141 1.1613811 0.8326785 0.68381953 1.1219496 0.5684385 0.5946888 0.93943256
0.99000823 1.0832046 1.1519295 1.3314937 0.701527 1.255027 0.9292938 1.0217859
1.1133412 0.45052907 1.1773801 0.7943096 0.65460664 0.7942245 0.86856866 1.2029632
0.52478594 0.7319199 0.9306911 0.9861907 0.98895526 0.92744434 0.78387797 0.62589896
0.9290668 1.1821579 1.733701 0.8638931 0.45951995 0.98745936 0.9510542 1.1728629
1.1126367 1.1096048 0.99782455 1.3226906 0.26420364 0.894636 0.8717359 0.825303
0.025232237 0.046738453 0.14422145 0.12820984 -0.17542456 0.2471965 0.16813366 -0.14656556
0.12082096 0.061007235 0.057198483 0.06478998 0.096478865 0.25838506 -0.06344989 -0.006093772
0.064592116 -0.07631357 0.12745467 -0.08018554 0.0071099196 -0.1397336 0.07590668 0.11683899
0.044733845 -0.11724532 -0.02936485 0.084217004 -0.043020476 -0.06425226 -0.078937724 0.04738148
-0.06843706 0.006701586 -0.004857852 -0.05935754 -0.055406716 0.14539734 -0.04289221 0.043671463
0.07177905 -0.09870141 0.03200022 0.08420744 0.07176612 0.11408906 -0.04887082 0.019355252
0.011454566 -0.00059339055 -0.014428215 -0.03808177 -0.012891643 -0.04293754 0.1367101 0.058158327
-0.024471102 0.044490486 -0.10893286 -0.01583903 0.076353915 -0.0726242 -0.028579859 -0.015721546
-0.63064766 -0.6138552 -0.4944304 -0.22741376 0.012583785 -0.65997505 -0.40669036 -0.46508363
-0.31117493 -0.7173429 -0.4907372 -0.77213794 -0.79384816 -0.4738553 -0.5142433 -0.41982314
-0.51323885 -0.7507892 -0.60582393 -0.1994197 -0.39451405 -0.7563837 -0.33366662 -0.21290626
-0.61876506 -0.50609326 -0.7188715 -0.12790291 1.822173 -0.43563956 -0.49615094 -0.9172
-0.54562765 -0.6490717 0.28244692 -0.43757102 0.6092856 -0.34853885 -0.65431213 -0.6643373
-0.21404183 -0.3958662 -0.091026776 -0.4329484 -0.4155615 -0.85258615 -0.7691698 -0.86195225
-0.4631595 -0.7189754 -0.6535581 -0.9103155 -0.25841868 -0.34238136 -0.6501625 -0.86852175
-0.7213234 -0.78236806 -0.38653344 -0.52721715 0.07973157 -0.42309767 -0.53637505 -0.58819747

sequential_1/dense_3/MatMul;sequential_1/dense_3/BiasAdd f4 [22]
00000000: 7aff 4ec0 1805 243e 8186 673e 3940 49c0
00000010: d411 4c40 d4f6 bb40 e120 1f3e 2320 933f
00000020: 585b 4340 846f 84bd 6000 5e40 9e74 173f
00000030: 39ca 6340 f0b1 4840 b7e4 5640 64f7 e43f
00000040: f2ab a23f d84f 3640 d0b7 6b40 e314 3a3f
00000050: 57be 5940 7f17 5c40
-3.234343 0.16017568 0.22609903 -3.1445448 3.1885881 5.8738804 0.15539886 1.1494182
3.0524502 -0.064665824 3.468773 0.5916232 3.5592177 3.1358604 3.3577096 1.7887998
1.2708724 2.8486233 3.683094 0.7268812 3.4022424 3.438934

sequential_1/batch_normalization_1/batchnorm/mul_1;sequential_1/batch_normalization_1/batchnorm/add_1;sequential_1/dense_3/MatMul;sequential_1/dense_3/BiasAdd i1 [22, 64] scale=0.07395161 zero_point=0
00000000: 0a1b f309 eefe e90a f0f9 0ae1 e008 1216
00000010: 02fd 0cdf fbeb feeb 10f5 0b17 f716 fd0d
00000020: 06ee 0e12 1409 f2f7 f7f4 0dee 0d15 eff8
00000030: ec37 10e2 fefe ee06 f70f 02ec fd10 dd05
00000040: 0f0f 14f8 ede5 07f2 f30b ebfe 16f7 eee6
00000050: 0d0a 07fd e4df 05e1 f4f0 f30c f507 041c
00000060: f807 0df4 06e3 dafd 08fb fbfb 02f0 f602
00000070: f8be 02f1 f300 f002 e1f9 1505 e414 fdf7
00000080: eb0e e0fd fafc 04fd 0eea 060e f312 ec00
00000090: 00f8 f0f9 03f6 f7f2 f7fd ea09 f40d f20c
000000a0: 1610 e1d2 16f8 e20a f6e6 0fee db04 fefa
000000b0: 0d32 ffed 16e7 0d12 1315 1007 da06 ed10
000000c0: c509 e412 f700 dbf5 0001 15e3 fef9 0219
000000d0: 04f3 0be9 06f0 0412 16ff f201 e109 fdf3
000000e0: 0c05 1115 1c02 ed14 fed9 11e8 cc12 e1fd
000000f0: 06d6 03e5 e100 e612 e70c 1105 0814 0102
0.7395161 1.9966935 -0.96137094 0.6655645 -1.331129 -0.14790322 -1.700887 0.7395161
-1.1832258 -0.5176613 0.7395161 -2.2924998 -2.3664515 0.5916129 1.331129 1.6269354
0.14790322 -0.22185484 0.88741934 -2.4404032 -0.36975804 -1.5529838 -0.14790322 -1.5529838
1.1832258 -0.8134677 0.8134677 1.700887 -0.6655645 1.6269354 -0.22185484 0.96137094
0.44370967 -1.331129 1.0353225 1.331129 1.4790322 0.6655645 -1.0353225 -0.6655645
-0.6655645 -0.88741934 0.96137094 -1.331129 0.96137094 1.5529838 -1.2571774 -0.5916129
-1.4790322 4.0673385 1.1832258 -2.2185483 -0.14790322 -0.14790322 -1.331129 0.44370967
-0.6655645 1.1092741 0.14790322 -1.4790322 -0.22185484 1.1832258 -2.5883064 0.36975804
1.1092741 1.1092741 1.4790322 -0.5916129 -1.4050806 -1.9966935 0.5176613 -1.0353225
-0.96137094 0.8134677 -1.5529838 -0.14790322 1.6269354 -0.6655645 -1.331129 -1.9227419
0.96137094 0.7395161 0.5176613 -0.22185484 -2.070645 -2.4404032 0.36975804 -2.2924998
-0.88741934 -1.1832258 -0.96137094 0.88741934 -0.8134677 0.5176613 0.29580644 2.070645
-0.5916129 0.5176613 0.96137094 -0.88741934 0.44370967 -2.1445966 -2.810161 -0.22185484
0.5916129 -0.36975804 -0.36975804 -0.36975804 0.14790322 -1.1832258 -0.7395161 0.14790322
-0.5916129 -4.8808064 0.14790322 -1.1092741 -0.96137094 0.0 -1.1832258 0.14790322
-2.2924998 -0.5176613 1.5529838 0.36975804 -2.070645 1.4790322 -0.22185484 -0.6655645
-1.5529838 1.0353225 -2.3664515 -0.22185484 -0.44370967 -0.29580644 0.29580644 -0.22185484
1.0353225 -1.6269354 0.44370967 1.0353225 -0.96137094 1.331129 -1.4790322 0.0
0.0 -0.5916129 -1.1832258 -0.5176613 0.22185484 -0.7395161 -0.6655645 -1.0353225
-0.6655645 -0.22185484 -1.6269354 0.6655645 -0.88741934 0.96137094 -1.0353225 0.88741934
1.6269354 1.1832258 -2.2924998 -3.401774 1.6269354 -0.5916129 -2.2185483 0.7395161
-0.7395161 -1.9227419 1.1092741 -1.331129 -2.7362096 0.29580644 -0.14790322 -0.44370967
0.96137094 3.6975806 -0.07395161 -1.4050806 1.6269354 -1.8487903 0.96137094 1.331129
1.4050806 1.5529838 1.1832258 0.5176613 -2.810161 0.44370967 -1.4050806 1.1832258
-4.363145 0.6655645 -2.070645 1.331129 -0.6655645 0.0 -2.7362096 -0.8134677
0.0 0.07395161 1.5529838 -2.1445966 -0.14790322 -0.5176613 0.14790322 1.8487903
0.29580644 -0.96137094 0.8134677 -1.700887 0.44370967 -1.1832258 0.29580644 1.331129
1.6269354 -0.07395161 -1.0353225 0.07395161 -2.2924998 0.6655645 -0.22185484 -0.96137094
0.88741934 0.36975804 1.2571774 1.5529838 2.070645 0.14790322 -1.4050806 1.4790322
-0.14790322 -2.8841128 1.2571774 -1.7748387 -3.8454838 1.331129 -2.2924998 -0.22185484
0.44370967 -3.1059675 0.22185484 -1.9966935 -2.2924998 0.0 -1.9227419 1.331129
-1.8487903 0.88741934 1.2571774 0.36975804 0.5916129 1.4790322 0.07395161 0.14790322

sequential_1/dense_2/MatMul i1 [64, 64] scale=0.017695678 zero_point=0
00000000: 37ee f214 0107 1b15 0ed4 ff09 0325 f807
00000010: e8f7 1305 340a 07fc 0b04 1b45 22fa 10fa
00000020: 2309 eb10 f7f7 1a1c e812 1210 0f02 0835
00000030: ff0c d3f7 0b03 f90a 05df fe11 02f4 fc0a
00000040: ec08 0007 e51d eadb 1cfc 0ee1 f707 0e00
00000050: f8ef ef09 efe9 ffb3 0e11 18fe 011e d6f2
00000060: e5fc 000a 1900 fd08 fe04 f4f1 ecfb f209
00000070: 0906 10f5 1805 f9e9 1ff2 ff06 0711 cd03
00000080: 060a 08f5 f5fa 23eb ebf2 0201 0118 f9fc
00000090: 0cf1 f7fb fadb 16ee 0917 10fc f10a 08ed
000000a0: dff6 ee03 0bff 04ff 0704 0b03 1a0e 16fc
000000b0: ff13 2afe 08e5 15fa ea0a 0afb f901 00ea
000000c0: 0221 0517 150a 001d f1fe 000f 12fb ec19
000000d0: ffdb f3f5 03e6 1bf0 fb1d f8ff f616 15f4
000000e0: fbf7 ec06 fcdd f30f f635 fd00 06fc dc05
000000f0: f5fe fc1e 1903 2004 ea06 1b1a 251f fef6
0.9732623 -0.3185222 -0.2477395 0.35391358 0.017695678 0.12386975 0.47778332 0.37160924
0.2477395 -0.7786099 -0.017695678 0.1592611 0.053087033 0.6547401 -0.14156543 0.12386975
-0.42469627 -0.1592611 0.33621788 0.088478394 0.92017525 0.17695679 0.12386975 -0.07078271
0.19465247 0.07078271 0.47778332 1.2210019 0.60165304 -0.10617407 0.28313085 -0.10617407
0.61934876 0.1592611 -0.37160924 0.28313085 -0.1592611 -0.1592611 0.46008763 0.495479
-0.42469627 0.3185222 0.3185222 0.28313085 0.2654352 0.035391357 0.14156543 0.937871
-0.017695678 0.21234813 -0.79630554 -0.1592611 0.19465247 0.053087033 -0.12386975 0.17695679
0.088478394 -0.5839574 -0.035391357 0.30082652 0.035391357 -0.21234813 -0.07078271 0.17695679
-0.35391358 0.14156543 0.0 0.12386975 -0.47778332 0.51317465 -0.38930494 -0.6547401
0.495479 -0.07078271 0.2477395 -0.54856604 -0.1592611 0.12386975 0.2477395 0.0
-0.14156543 -0.30082652 -0.30082652 0.1592611 -0.30082652 -0.4070006 -0.017695678 -1.3625672
0.2477395 0.30082652 0.42469627 -0.035391357 0.017695678 0.5308704 -0.7432185 -0.2477395
-0.47778332 -0.07078271 0.0 0.17695679 0.44239196 0.0 -0.053087033 0.14156543
-0.035391357 0.07078271 -0.21234813 -0.2654352 -0.35391358 -0.088478394 -0.2477395 0.1592611
0.1592611 0.10617407 0.28313085 -0.19465247 0.42469627 0.088478394 -0.12386975 -0.4070006
0.54856604 -0.2477395 -0.017695678 0.10617407 0.12386975 0.30082652 -0.9024796 0.053087033
0.10617407 0.17695679 0.14156543 -0.19465247 -0.19465247 -0.10617407 0.61934876 -0.37160924
-0.37160924 -0.2477395 0.035391357 0.017695678 0.017695678 0.42469627 -0.12386975 -0.07078271
0.21234813 -0.2654352 -0.1592611 -0.088478394 -0.10617407 -0.6547401 0.38930494 -0.3185222
0.1592611 0.4070006 0.28313085 -0.07078271 -0.2654352 0.17695679 0.14156543 -0.33621788
-0.5839574 -0.17695679 -0.3185222 0.053087033 0.19465247 -0.017695678 0.07078271 -0.017695678
0.12386975 0.07078271 0.19465247 0.053087033 0.46008763 0.2477395 0.38930494 -0.07078271
-0.017695678 0.33621788 0.7432185 -0.035391357 0.14156543 -0.47778332 0.37160924 -0.10617407
-0.38930494 0.17695679 0.17695679 -0.088478394 -0.12386975 0.017695678 0.0 -0.38930494
0.035391357 0.5839574 0.088478394 0.4070006 0.37160924 0.17695679 0.0 0.51317465
-0.2654352 -0.035391357 0.0 0.2654352 0.3185222 -0.088478394 -0.35391358 0.44239196
-0.017695678 -0.6547401 -0.23004381 -0.19465247 0.053087033 -0.46008763 0.47778332 -0.28313085
-0.088478394 0.51317465 -0.14156543 -0.017695678 -0.17695679 0.38930494 0.37160924 -0.21234813
-0.088478394 -0.1592611 -0.35391358 0.10617407 -0.07078271 -0.61934876 -0.23004381 0.2654352
-0.17695679 0.937871 -0.053087033 0.0 0.10617407 -0.07078271 -0.6370444 0.088478394
-0.19465247 -0.035391357 -0.07078271 0.5308704 0.44239196 0.053087033 0.5662617 0.07078271
-0.38930494 0.10617407 0.47778332 0.46008763 0.6547401 0.54856604 -0.035391357 -0.17695679

sequential_1/lstm_1/Read_2/ReadVariableOp1 f4 [256]
00000000: 1ec6 4fbf f8c6 3bbf 18d9 2fbe becb bf3d
00000010: 7045 b0be 72a3 37bf af68 a6be da51 ebbe
00000020: b6e5 acbd 4789 3dbf 571c 49bf 95ad 6cbf
00000030: 9f3f 2dbf 6869 b4be feba b3be 5052 babe
00000040: 241d 06bf aa4b 26bf 5bde 5dbf 9250 0dbe
00000050: a9bb c5be f906 47bf 5b57 bebe fc2b 99bc
00000060: d6f2 1cbf de51 d7be 4f00 68bf fa1e 68bf
00000070: d146 933f 656b f9be 2541 01bf cd7f 31bf
00000080: b091 61bf daa7 3cbf 004a 37bf 2a91 22bf
00000090: 2dd9 393f bf55 03bf 4dae 22bf 93d8 0fbf
000000a0: a554 5cbd 3cb9 1dbf 0ecc 6ebf 24b2 90bf
000000b0: e3f6 cabe 4baa 33bf cfb8 3ebf 1dd5 39bf
000000c0: 4f57 0dbf f7a7 58bf c3de 7cbf 80bd 4bbf
000000d0: 13ff c1be 90b7 3bbf 82e5 4dbf d289 67bf
000000e0: bcaf 3abf 9613 1cbf 1fae 28bf a9e0 39bf
000000f0: 13e3 173e 9c4c 4ebf ed57 2cbf a13f 27bf
00000100: 007c 743f 9da6 993f b2e2 b23f a826 2a3f
00000110: af5c 133f 5f52 3d3f 53d6 d73e 6533 9b3f
00000120: 00a3 693f 6584 b93f 738a 773f e732 7e3f
00000130: 0fa2 b03f 4763 8a3f 43a9 063f adc2 9a3f
00000140: 518b bd3f 23a8 943f 6b2a 553f cc0e 2f3f
00000150: 0b9c 8f3f 2f85 113f 863d 183f a77e 703f
00000160: 2e71 7d3f 73a6 8a3f 6d72 933f 636e aa3f
00000170: 4697 333f baa4 a03f 33e6 6d3f e1c9 823f
00000180: f781 8e3f bfab e63e 64b4 963f e057 4b3f
00000190: 4d94 273f 4c52 4b3f 845a 5e3f b3fa 993f
000001a0: 5f58 063f 1a5f 3b3f c641 6e3f fe76 7c3f
000001b0: 2c2c 7d3f fe6c 6d3f 3aac 483f ea3a 203f
000001c0: 52d7 6d3f f350 973f eae9 dd3f 1928 5d3f
000001d0: 3346 eb3e 23ca 7c3f 4a78 733f 5f20 963f
000001e0: e16a 8e3f 8807 8e3f 6e71 7f3f ed4d a93f
000001f0: b345 873e dd06 653f 152a 5f3f 0f47 533f
00000200: d6b3 ce3c d270 3f3d caae 133e 7149 033e
00000210: 7fa2 33be 1421 7d3e 3b2b 2c3e 4815 16be
00000220: fb70 f73d b9e2 793d f548 6a3d 9cb0 843d
00000230: b696 c53d 0c4b 843e 04f2 81bd 44ae c7bb
00000240: df48 843d 4a4a 9cbd 7a83 023e 5138 a4bd
00000250: 54fa e83b 5316 0fbe f674 9b3d 4849 ef3d
00000260: d63a 373d 501e f0bd 8e8e f0bc f779 ac3d
00000270: 3d36 30bd b096 83bd 1aaa a1bd 1513 423d
00000280: bb28 8cbd fa98 db3b 9e2e 9fbb e420 73bd
00000290: 27f2 62bd 0ae3 143e beaf 2fbd d9e0 323d
000002a0: e500 933d f723 cabd aa12 033d f374 ac3d
000002b0: 1efa 923d 86a7 e93d c52c 48bd e88e 9e3c
000002c0: efab 3b3c c48d 1bba 5264 6cbc a1fb 1bbd
000002d0: 7837 53bc 46df 2fbd bcfd 0b3e 6d37 6e3d
000002e0: 9f77 c8bc a83b 363d 3118 dfbd dac0 81bc
000002f0: 715f 9c3d ffbb 94bd 4f20 eabc 79ca 80bc
00000300: 2072 21bf 9d25 1dbf fb25 fdbe 27df 68be
00000310: 382c 4e3c 20f4 28bf b839 d0be 711f eebe
00000320: 5252 9fbe c9a3 37bf e841 fbbe d5aa 45bf
00000330: a239 4bbf 299d f2be 73a5 03bf 0ff3 d6be
00000340: 9f63 03bf b933 40bf 4717 1bbf ae34 4cbe
00000350: bffd c9be 5da2 41bf 5ad6 aabe 1904 5abe
00000360: 6367 1ebf 548f 01bf f607 38bf fbf8 02be
00000370: f73c e93f 260c dfbe 7f07 febe 9fcd 6abf
00000380: 41ae 0bbf 9029 26bf e29c 903e 4f09 e0be
00000390: 24fa 1b3f af73 b2be 0081 27bf 0212 2abf
000003a0: c82d 5bbe f9ae cabe 3f6c babd 6aab ddbe
000003b0: 7ac4 d4be 1643 5abf 50e8 44bf e7a8 5cbf
000003c0: 3e23 edbe c60e 38bf 954f 27bf 700a 69bf
000003d0: 744f 84be 9c4c afbe 0d71 26bf 7157 5ebf
000003e0: a6a8 38bf 4649 48bf b6e7 c5be b4f7 06bf
000003f0: 4e4a a33d 42a0 d8be e04f 09bf 1c94 16bf
-0.8116168 -0.7335048 -0.17172658 0.093650326 -0.34427977 -0.7173377 -0.32501742 -0.45960885
-0.084422514 -0.74037594 -0.7855887 -0.92452365 -0.67675203 -0.3523667 -0.351036 -0.36390924
-0.52388215 -0.64959204 -0.8666741 -0.13800266 -0.38619736 -0.77745014 -0.37176022 -0.018697731
-0.6130804 -0.42054647 -0.9062547 -0.90672266 1.1505986 -0.48714748 -0.5049003 -0.69335634
-0.88112926 -0.7369362 -0.7159729 -0.6350275 0.7259701 -0.51302713 -0.6354721 -0.5618984
-0.05379166 -0.6161077 -0.9328011 -1.1304364 -0.39641485 -0.7018172 -0.74500746 -0.7259081
-0.5521135 -0.84631294 -0.9877741 -0.7958603 -0.3788992 -0.7332697 -0.80428326 -0.9044467
-0.729244 -0.60967386 -0.6589069 -0.7260843 0.14832716 -0.80585647 -0.67321664 -0.65331465
0.9550171 1.2003971 1.3975432 0.66465235 0.575633 0.73953813 0.42155704 1.2125059
0.91264343 1.4493529 0.9669563 0.9929642 1.3799456 1.0811547 0.5260202 1.209066
1.4808141 1.1613811 0.8326785 0.68381953 1.1219496 0.5684385 0.5946888 0.93943256
0.99000823 1.0832046 1.1519295 1.3314937 0.701527 1.255027 0.9292938 1.0217859
1.1133412 0.45052907 1.1773801 0.7943096 0.65460664 0.7942245 0.86856866 1.2029632
0.52478594 0.7319199 0.9306911 0.9861907 0.98895526 0.92744434 0.78387797 0.62589896
0.9290668 1.1821579 1.733701 0.8638931 0.45951995 0.98745936 0.9510542 1.1728629
1.1126367 1.1096048 0.99782455 1.3226906 0.26420364 0.894636 0.8717359 0.825303
0.025232237 0.046738453 0.14422145 0.12820984 -0.17542456 0.2471965 0.16813366 -0.14656556
0.12082096 0.061007235 0.057198483 0.06478998 0.096478865 0.25838506 -0.06344989 -0.006093772
0.064592116 -0.07631357 0.12745467 -0.08018554 0.0071099196 -0.1397336 0.07590668 0.11683899
0.044733845 -0.11724532 -0.02936485 0.084217004 -0.043020476 -0.06425226 -0.078937724 0.04738148
-0.06843706 0.006701586 -0.004857852 -0.05935754 -0.055406716 0.14539734 -0.04289221 0.043671463
0.07177905 -0.09870141 0.03200022 0.08420744 0.07176612 0.11408906 -0.04887082 0.019355252
0.011454566 -0.00059339055 -0.014428215 -0.03808177 -0.012891643 -0.04293754 0.1367101 0.058158327
-0.024471102 0.044490486 -0.10893286 -0.01583903 0.076353915 -0.0726242 -0.028579859 -0.015721546
-0.63064766 -0.6138552 -0.4944304 -0.22741376 0.012583785 -0.65997505 -0.40669036 -0.46508363
-0.31117493 -0.7173429 -0.4907372 -0.77213794 -0.79384816 -0.4738553 -0.5142433 -0.41982314
-0.51323885 -0.7507892 -0.60582393 -0.1994197 -0.39451405 -0.7563837 -0.33366662 -0.21290626
-0.61876506 -0.50609326 -0.7188715 -0.12790291 1.822173 -0.43563956 -0.49615094 -0.9172
-0.54562765 -0.6490717 0.28244692 -0.43757102 0.6092856 -0.34853885 -0.65431213 -0.6643373
-0.21404183 -0.3958662 -0.091026776 -0.4329484 -0.4155615 -0.85258615 -0.7691698 -0.86195225
-0.4631595 -0.7189754 -0.6535581 -0.9103155 -0.25841868 -0.34238136 -0.6501625 -0.86852175
-0.7213234 -0.78236806 -0.38653344 -0.52721715 0.07973157 -0.42309767 -0.53637505 -0.58819747

while/MatMul_11 i1 [256, 64] scale=0.037341222 zero_point=0
00000000: f1fa f0fd 1119 e318 fb0f 1507 faf9 020c
00000010: 091f 22fc e7e0 0bef eeea 06f0 100c edfd
00000020: 0afd 03f3 f705 0405 0e01 e217 0710 ec0e
00000030: f2cd 0617 f50d 2a12 0802 f1ed f7e6 e601
00000040: 0eee f609 fb12 ee19 05f7 fdfd f609 0c04
00000050: fe0d 0407 e0ff f1ed 08fd fefd f6f3 0405
00000060: f80c fafa 08fd 0306 0500 f914 1604 f602
00000070: fdfb fc15 f0f2 2304 0308 0200 f3f1 e502
00000080: d20c 190e ef14 10db f20e 0a01 0002 0115
00000090: f3fc 0b09 fedf f501 f5ea 00ea f118 f7f5
000000a0: f516 fa08 0001 e0fb 0600 e904 e8fb fbf8
000000b0: f713 110a f9f1 19f5 fd08 ffe6 0308 fcf8
000000c0: edfc 0d17 0501 06e9 1110 0707 ef07 f20c
000000d0: f517 f40e 1403 010a 12de f7ff 09ef 1afe
000000e0: fd0a 01f0 1419 02fd fb0b 0501 faf9 23f4
000000f0: fff9 fef2 f8de f3fb 29f6 06fc 08ec 06f6
-0.5601183 -0.22404733 -0.59745955 -0.11202367 0.6348008 0.93353057 -1.0828954 0.89618933
-0.18670611 0.5601183 0.7841657 0.26138854 -0.22404733 -0.26138854 0.074682444 0.44809467
0.336071 1.1575779 1.2696016 -0.14936489 -0.93353057 -1.1949191 0.41075343 -0.6348008
-0.672142 -0.82150686 0.22404733 -0.59745955 0.59745955 0.44809467 -0.7094832 -0.11202367
0.37341222 -0.11202367 0.11202367 -0.4854359 -0.336071 0.18670611 0.14936489 0.18670611
0.5227771 0.037341222 -1.1202366 0.8588481 0.26138854 0.59745955 -0.74682444 0.5227771
-0.5227771 -1.9044024 0.22404733 0.8588481 -0.41075343 0.4854359 1.5683314 0.672142
0.29872978 0.074682444 -0.5601183 -0.7094832 -0.336071 -0.9708718 -0.9708718 0.037341222
0.5227771 -0.672142 -0.37341222 0.336071 -0.18670611 0.672142 -0.672142 0.93353057
0.18670611 -0.336071 -0.11202367 -0.11202367 -0.37341222 0.336071 0.44809467 0.14936489
-0.074682444 0.4854359 0.14936489 0.26138854 -1.1949191 -0.037341222 -0.5601183 -0.7094832
0.29872978 -0.11202367 -0.074682444 -0.11202367 -0.37341222 -0.4854359 0.14936489 0.18670611
-0.29872978 0.44809467 -0.22404733 -0.22404733 0.29872978 -0.11202367 0.11202367 0.22404733
0.18670611 0.0 -0.26138854 0.74682444 0.82150686 0.14936489 -0.37341222 0.074682444
-0.11202367 -0.18670611 -0.14936489 0.7841657 -0.59745955 -0.5227771 1.3069428 0.14936489
0.11202367 0.29872978 0.074682444 0.0 -0.4854359 -0.5601183 -1.008213 0.074682444
-1.7176962 0.44809467 0.93353057 0.5227771 -0.6348008 0.74682444 0.59745955 -1.3816252
-0.5227771 0.5227771 0.37341222 0.037341222 0.0 0.074682444 0.037341222 0.7841657
-0.4854359 -0.14936489 0.41075343 0.336071 -0.074682444 -1.2322603 -0.41075343 0.037341222
-0.41075343 -0.82150686 0.0 -0.82150686 -0.5601183 0.89618933 -0.336071 -0.41075343
-0.41075343 0.82150686 -0.22404733 0.29872978 0.0 0.037341222 -1.1949191 -0.18670611
0.22404733 0.0 -0.8588481 0.14936489 -0.89618933 -0.18670611 -0.18670611 -0.29872978
-0.336071 0.7094832 0.6348008 0.37341222 -0.26138854 -0.5601183 0.93353057 -0.41075343
-0.11202367 0.29872978 -0.037341222 -0.9708718 0.11202367 0.29872978 -0.14936489 -0.29872978
-0.7094832 -0.14936489 0.4854359 0.8588481 0.18670611 0.037341222 0.22404733 -0.8588481
0.6348008 0.59745955 0.26138854 0.26138854 -0.6348008 0.26138854 -0.5227771 0.44809467
-0.41075343 0.8588481 -0.44809467 0.5227771 0.74682444 0.11202367 0.037341222 0.37341222
0.672142 -1.2696016 -0.336071 -0.037341222 0.336071 -0.6348008 0.9708718 -0.074682444
-0.11202367 0.37341222 0.037341222 -0.59745955 0.74682444 0.93353057 0.074682444 -0.11202367
-0.18670611 0.41075343 0.18670611 0.037341222 -0.22404733 -0.26138854 1.3069428 -0.44809467
-0.037341222 -0.26138854 -0.074682444 -0.5227771 -0.29872978 -1.2696016 -0.4854359 -0.18670611
1.5309901 -0.37341222 0.22404733 -0.14936489 0.29872978 -0.74682444 0.22404733 -0.37341222

while/MatMul i1 [256, 12] scale=0.063140154 zero_point=0
00000000: 01fe 0604 05f5 0c01 f90a f8ee 05fa 07fc
00000010: f7fa f502 f905 fefd 0f02 fa02 0cfc 0405
00000020: 0017 f50a 080a 09fe 03fd 0a0c 0111 02f8
00000030: 151d f808 1e07 1c06 1e15 1503 0c00 f206
00000040: fef5 0502 0bfc 17f1 110f 06ff f0f4 09fe
00000050: 0c00 1200 0301 0cfe 02f0 f701 0609 fb17
00000060: 0f13 02f9 0802 06fc ff06 180b 0bfe f8fa
00000070: fafb 1104 17fd 0802 fdf8 2300 0e05 130a
00000080: 1402 e9fd 0bf8 0309 f3f3 f0fc 00fb 0305
00000090: 130c 0302 fd03 00ff 0103 f6fc f70a 0a11
000000a0: 11eb 0e12 1313 0709 fcfe ff09 0bff 03f7
000000b0: 09fb 04f6 0702 0502 0114 f10a 0402 06fd
000000c0: 0909 fc0c 15eb 010c 0815 fe01 0404 f3f9
000000d0: 0b09 1309 0b09 12fd 0301 0607 0102 11ff
000000e0: 080c 0e09 fe2b 0ff1 0405 0c06 1103 1006
000000f0: 08fe f8fb 0cf2 0d08 12fe 1afd fb05 0502
0.063140154 -0.12628031 0.37884092 0.25256062 0.31570077 -0.6945417 0.75768185 0.063140154
-0.44198108 0.63140154 -0.50512123 -1.1365228 0.31570077 -0.37884092 0.44198108 -0.25256062
-0.5682614 -0.37884092 -0.6945417 0.12628031 -0.44198108 0.31570077 -0.12628031 -0.18942046
0.9471023 0.12628031 -0.37884092 0.12628031 0.75768185 -0.25256062 0.25256062 0.31570077
0.0 1.4522235 -0.6945417 0.63140154 0.50512123 0.63140154 0.5682614 -0.12628031
0.18942046 -0.18942046 0.63140154 0.75768185 0.063140154 1.0733826 0.12628031 -0.50512123
1.3259432 1.8310645 -0.50512123 0.50512123 1.8942046 0.44198108 1.7679243 0.37884092
1.8942046 1.3259432 1.3259432 0.18942046 0.75768185 0.0 -0.88396215 0.37884092
-0.12628031 -0.6945417 0.31570077 0.12628031 0.6945417 -0.25256062 1.4522235 -0.9471023
1.0733826 0.9471023 0.37884092 -0.063140154 -1.0102425 -0.75768185 0.5682614 -0.12628031
0.75768185 0.0 1.1365228 0.0 0.18942046 0.063140154 0.75768185 -0.12628031
0.12628031 -1.0102425 -0.5682614 0.063140154 0.37884092 0.5682614 -0.31570077 1.4522235
0.9471023 1.1996629 0.12628031 -0.44198108 0.50512123 0.12628031 0.37884092 -0.25256062
-0.063140154 0.37884092 1.5153637 0.6945417 0.6945417 -0.12628031 -0.50512123 -0.37884092
-0.37884092 -0.31570077 1.0733826 0.25256062 1.4522235 -0.18942046 0.50512123 0.12628031
-0.18942046 -0.50512123 2.2099054 0.0 0.88396215 0.31570077 1.1996629 0.63140154
1.2628031 0.12628031 -1.4522235 -0.18942046 0.6945417 -0.50512123 0.18942046 0.5682614
-0.820822 -0.820822 -1.0102425 -0.25256062 0.0 -0.31570077 0.18942046 0.31570077
1.1996629 0.75768185 0.18942046 0.12628031 -0.18942046 0.18942046 0.0 -0.063140154
0.063140154 0.18942046 -0.63140154 -0.25256062 -0.5682614 0.63140154 0.63140154 1.0733826
1.0733826 -1.3259432 0.88396215 1.1365228 1.1996629 1.1996629 0.44198108 0.5682614
-0.25256062 -0.12628031 -0.063140154 0.5682614 0.6945417 -0.063140154 0.18942046 -0.5682614
0.5682614 -0.31570077 0.25256062 -0.63140154 0.44198108 0.12628031 0.31570077 0.12628031
0.063140154 1.2628031 -0.9471023 0.63140154 0.25256062 0.12628031 0.37884092 -0.18942046
0.5682614 0.5682614 -0.25256062 0.75768185 1.3259432 -1.3259432 0.063140154 0.75768185
0.50512123 1.3259432 -0.12628031 0.063140154 0.25256062 0.25256062 -0.820822 -0.44198108
0.6945417 0.5682614 1.1996629 0.5682614 0.6945417 0.5682614 1.1365228 -0.18942046
0.18942046 0.063140154 0.37884092 0.44198108 0.063140154 0.12628031 1.0733826 -0.063140154
0.50512123 0.75768185 0.88396215 0.5682614 -0.12628031 2.7150266 0.9471023 -0.9471023
0.25256062 0.31570077 0.75768185 0.37884092 1.0733826 0.18942046 1.0102425 0.37884092
0.50512123 -0.12628031 -0.50512123 -0.31570077 0.75768185 -0.88396215 0.820822 0.50512123
1.1365228 -0.12628031 1.641644 -0.18942046 -0.31570077 0.31570077 0.31570077 0.12628031
