android/app/src/main/assets/model_static.tflite (tflite, 10560 bytes, 6 tensors)

sequential_2/dense_8/MatMul f4 [22, 32]
0	0xbf166e3f	-0.5876197
1	0x3c98671e	0.018603858
2	0xbed8e482	-0.42361838
3	0xbe19a6a7	-0.15004979
4	0x3d907bdf	0.070548765
5	0x3e829e5f	0.25511453
6	0xbe03d7e9	-0.12875332
7	0x3eaf7e71	0.34276155
8	0xbe43dd6a	-0.19127432
9	0x3bca4bc9	0.006173585
10	0xbd972669	-0.07380373
11	0x3ec41b33	0.38302
12	0xbd10bf43	-0.03533865
13	0x3e2483ad	0.16065855
14	0xbeb62c15	-0.35580507
15	0xbced03b4	-0.02893243
16	0x3ec5dbd2	0.38644272
17	0xbf212775	-0.6295083
18	0x3e76dadf	0.2410693
19	0xbf248682	-0.6426774
20	0xbf0aac5e	-0.5416926
21	0x3e819c4e	0.25314564
22	0x3c3e6e95	0.0116230445
23	0x3e81300d	0.25231972
24	0xbcf6c0b3	-0.030121183
25	0x3e31f93d	0.17380233
26	0xbeedba18	-0.4643104
27	0xbc69a2e3	-0.014260027
28	0x3e1506d4	0.14553386
29	0xbe7d13eb	-0.2471463
30	0x3ec9860a	0.39360076
31	0xbe98c577	-0.29838154
32	0xbeb9c1df	-0.36280724
33	0xbe14e150	-0.14539075
34	0xbd3e66dd	-0.046484817
35	0xbd9ce0a1	-0.07660032
36	0x3ea84938	0.3286836
37	0xbf365924	-0.7122977
38	0xbeeb9968	-0.46015477
39	0x3f161062	0.5861875
40	0xbebbc73d	-0.36675444
41	0x3ea1e625	0.316209
42	0x3d7bb418	0.061451048
43	0xbeaf5f51	-0.34252408
44	0x3e59ce49	0.21270098
45	0x3d25479a	0.040351488
46	0x3e3d544c	0.18489188
47	0xbe3c2526	-0.18373546
48	0x3e8ceed5	0.27525964
49	0x3f09e824	0.53869843
50	0xbf0502b2	-0.5195724
51	0xbf11ec2f	-0.5700101
52	0xbf0f6c78	-0.56024885
53	0xbe6a66f0	-0.2289083
54	0x3d17b131	0.037034217
55	0xbc857653	-0.016291773
56	0xbf14cbcc	-0.5812347
57	0xbded5e1a	-0.11590214
58	0x3e8c0319	0.27346113
59	0xbdecb9fb	-0.115589105
60	0x3c6ba6d4	0.014383037
61	0xbe2ea1da	-0.17053929
62	0xbe9503c0	-0.29104424
63	0x3db39be9	0.08769972
64	0xbdef2b9d	-0.116782404
65	0xbe9436fc	-0.289482
66	0xbd7bb90d	-0.061455775
67	0xbd2aa754	-0.041663483
68	0xbe337ad0	-0.17527318
69	0x3daed16b	0.08536037
70	0xbe306a5f	-0.17228077
71	0xbd8ff48d	-0.07029066
72	0xbe980463	-0.29690847
73	0xbc23e13e	-0.010002432
74	0xbece54f5	-0.40299192
75	0x3eaec2ec	0.3413309
76	0x3e8bf045	0.2733175
77	0x3e7e3444	0.24824625
78	0x3d2d04ac	0.042240784
79	0xbe97e74e	-0.2966866
80	0xbee9656e	-0.45585197
81	0xbe5e83eb	-0.2173001
82	0x3eb9a268	0.3625672
83	0xbf0db23e	-0.553501
84	0x3e0961f5	0.13416274
85	0xbeaf5d33	-0.34250793
86	0xbea97acf	-0.33101508
87	0x3d2e7ac2	0.04259754
88	0xbd35f0c1	-0.044419054
89	0xbe8dc615	-0.27690187
90	0x3ee57835	0.44818273
91	0xbcf6df7e	-0.030135866
92	0xbe3ac39a	-0.18238679
93	0xbdb17269	-0.086644
94	0x3e77fc9e	0.2421746
95	0x3e40fecc	0.18847197
96	0xbd162a62	-0.036661513
97	0xbe2f9223	-0.1714559
98	0xbec46f4e	-0.3836617
99	0xbd969cc1	-0.07354117
100	0xbf0813ad	-0.5315502
101	0x3ea6a243	0.3254567
102	0x3e796da2	0.24358228
103	0x3dc467df	0.09590124
104	0x3d012e28	0.03153816
105	0xbe4a702d	-0.19769354
106	0xbe8c4d79	-0.27402857
107	0x3d32d37b	0.043658715
108	0x3ed22905	0.4104692
109	0xbd871802	-0.06596376
110	0xbf13e327	-0.5776848
111	0x3ef1322d	0.47108594
112	0xbe5c8f50	-0.21539044
113	0x3d0ebf6c	0.034850523
114	0x3ee66382	0.44997793
115	0x3e54e489	0.20790304
116	0x3ed5d301	0.41762546
117	0x3f094cd6	0.5363287
118	0xbf12b3c8	-0.57305574
119	0xbdb2af94	-0.08724895
120	0xbe6be475	-0.23036368
121	0xbe9d4d81	-0.30723193
122	0x3c9c1e1c	0.019057326
123	0xbddf6d58	-0.109095275
124	0x3d37c47c	0.044865116
125	0xbc8962ca	-0.01677074
126	0xbee308c9	-0.4434264
127	0xbe404eba	-0.18780032
128	0xbd96902f	-0.073517196
129	0xbdb5903c	-0.08865401
130	0xbed17168	-0.40906835
131	0xbec994e1	-0.39371398
132	0xbd5293bf	-0.051410433
133	0x3d2c6046	0.042084
134	0xbe5f2df4	-0.21794873
135	0xbef836a1	-0.4847918
136	0x3ecba79c	0.39776313
137	0xbe3742d4	-0.17896587
138	0x3e277ae1	0.16355468
139	0xbeb565a4	-0.35429108
140	0x3ed8d460	0.4234953
141	0xbeadbf46	-0.33934993
142	0x3eb384ca	0.35062248
143	0x3e4cbeb8	0.19994628
144	0xbe469f1e	-0.19396636
145	0xbcde2dd2	-0.027121458
146	0x3e26625b	0.16248457
147	0xbd3b8737	-0.045783248
148	0xbd0ec32d	-0.034854103
149	0xbe21b899	-0.15793075
150	0xbf0f35a2	-0.5594121
151	0xbe96dd3c	-0.29465663
152	0x3d8032d9	0.062596984
153	0xbefdaeb1	-0.4954734
154	0xbe97e6c7	-0.29668257
155	0xbe391e3c	-0.1807794
156	0x3e9924e6	0.29910964
157	0x3e99e91f	0.3006067
158	0x3d1a8bcd	0.03773098
159	0x3e9f3152	0.31092316
160	0x3edaeb6a	0.42757732
161	0x3f221a77	0.6332163
162	0xbe9d80ed	-0.30762425
163	0xbee81a8e	-0.4533276
164	0xbe1ea4a0	-0.15492487
165	0xbe0f9ef9	-0.14025487
166	0x3e984e17	0.29747078
167	0xbd9d6438	-0.07685131
168	0x3e3a6876	0.18203911
169	0x3dc25be7	0.09490185
170	0x3eae9745	0.34099784
171	0xbed43418	-0.41445994
172	0xbf07f738	-0.531116
173	0xbd90e92a	-0.070757225
174	0xbd4b6bf5	-0.049663503
175	0xbe62dd74	-0.2215479
176	0x3e3a4cc8	0.18193352
177	0xbe4b18cf	-0.19833682
178	0xbebb52e6	-0.36586684
179	0xbe2d4016	-0.16918978
180	0xbdbc007a	-0.091797784
181	0xbe87c299	-0.26515654
182	0x3e30b2d9	0.17255725
183	0x3e8cc4b4	0.27493823
184	0x3d826a0b	0.06367882
185	0xbedf67cd	-0.4363388
186	0xbee74811	-0.4517217
187	0xbea6c5a1	-0.32572654
188	0x3c22eb97	0.009943864
189	0xbe13227b	-0.14368622
190	0xbecbc179	-0.39796045
191	0xbee2f283	-0.44325647
192	0x3d5e9fe0	0.054351687
193	0xbe78ff40	-0.2431612
194	0x3e36db71	0.17857148
195	0x3e7e35a4	0.2482515
196	0xbe0dbd3e	-0.13841721
197	0x3dc739e5	0.097278394
198	0xbe7a920e	-0.24469778
199	0xbef885c9	-0.4853957
200	0xbe3d0789	-0.18459906
201	0xbe03578a	-0.12826362
202	0xbf1278fb	-0.5721585
203	0xbd93eb3d	-0.072226025
204	0x3e35b5b8	0.17745101
205	0x3c1cbc31	0.009566353
206	0xbe258119	-0.16162528
207	0xbdfdc8d0	-0.123918176
208	0x3f14de0f	0.58151335
209	0x3e47c5d0	0.19509053
210	0xbe178228	-0.14795744
211	0xbefd562e	-0.49479812
212	0xbf08f86d	-0.5350407
213	0xbe7c2d35	-0.2462662
214	0x3efb2dac	0.49058282
215	0x3ec62451	0.38699582
216	0xbe9a4347	-0.30129454
217	0xbd986805	-0.07441715
218	0x3e5dbaff	0.21653365
219	0xbea8d669	-0.32976082
220	0xbec6aaf7	-0.3880231
221	0xbf2933dd	-0.6609476
222	0x3ea4a3b5	0.3215615
223	0xbe4a4cc9	-0.19755854
224	0xbeb8f0d8	-0.3612125
225	0xbf31669c	-0.69297194
226	0x3ebe2296	0.37135762
227	0x3e998733	0.2998596
228	0x3c902e89	0.017600315
229	0x3eb6bb69	0.35689858
230	0xbedaecce	-0.42758793
231	0x3e188e4b	0.1489803
232	0xbdb69810	-0.08915722
233	0xbe934f74	-0.28771555
234	0x3ecf716b	0.4051622
235	0xbe5f9986	-0.21835908
236	0x3d1c9324	0.03822626
237	0x3e27885d	0.16360612
238	0xbdfd3762	-0.12364079
239	0xbdbd141f	-0.092323534
240	0xbee20f57	-0.44152328
241	0xbc597904	-0.013273481
242	0xbca56828	-0.020191267
243	0xbe237167	-0.15961228
244	0x3c60916d	0.013706547
245	0xbefe9a90	-0.49727297
246	0xbddac134	-0.10681382
247	0xbec3f3ca	-0.38271934
248	0xbe22d964	-0.1590324
249	0x3d8ed5e1	0.06974388
250	0xbee8232c	-0.45339334
251	0xbeca7e37	-0.3954942
252	0x3ecdbffd	0.40185538
253	0xbe459a22	-0.19297078
254	0x3ea6c8dd	0.32575122
255	0xbed8dd1f	-0.42356202

sequential_2/dense_7/BiasAdd/ReadVariableOp f4 [32]
0	0x3e8209ac	0.25398004
1	0x3e834cf3	0.25644645
2	0x3e3a5148	0.18195069
3	0x3db0649d	0.086129405
4	0xbc7fcccf	-0.015612795
5	0x3de8c3ed	0.11365495
6	0x3e24f17d	0.16107745
7	0x3e1828cd	0.14859314
8	0x3e1ec7a7	0.15505849
9	0x3d93d8e0	0.072191
10	0x3e34649c	0.17616504
11	0x3ca30596	0.019900125
12	0x3e023de7	0.12718926
13	0x3d9f0cfc	0.077661484
14	0x3da21933	0.079149626
15	0x3d0f8464	0.035038367
16	0x3dfd7b00	0.12376976
17	0x3e0e3409	0.13887037
18	0x3e56169f	0.20907067
19	0x3e2b4a91	0.16727664
20	0x3e2f23d7	0.17103516
21	0x3e435128	0.19073927
22	0x3dca5d8f	0.09881126
23	0x3e2f4ff8	0.1712035
24	0x3e07b20c	0.13251513
25	0xbd051cd3	-0.032498192
26	0x3e04d5da	0.12972203
27	0xbde320a6	-0.110902116
28	0x3e54e00d	0.20788594
29	0x3e7c302c	0.24627751
30	0x3e223c38	0.15843284
31	0x3e42d98b	0.19028299

sequential_2/dense_8/BiasAdd/ReadVariableOp f4 [22]
0	0xbe08c2cd	-0.1335556
1	0x3d8df46c	0.069313854
2	0x3d035f60	0.03207338
3	0x3ca7dd4f	0.02049127
4	0xbbef77ce	-0.007307983
5	0x3e0a57e2	0.13510087
6	0xbd24beb1	-0.04022092
7	0xbc0d9158	-0.00864061
8	0xbd70e68f	-0.058813628
9	0xbdb348c8	-0.08754116
10	0x3d41ccf9	0.047314618
11	0x3d232c3b	0.039837103
12	0xbd5d0cb6	-0.0539672
13	0x3e3ed074	0.18634206
14	0x3c286cb2	0.010279821
15	0xbc4f93ba	-0.012669498
16	0xbd7a665a	-0.061132766
17	0x3d2223b2	0.039584823
18	0xbdf4d6bf	-0.11955022
19	0x3b9d94f1	0.004809015
20	0x3a03cabb	0.00050274626
21	0xbcab837b	-0.020936718

sequential_2/dense_6/MatMul;sequential_2/dense_6/Relu;sequential_2/dense_6/BiasAdd f4 [64]
0	0xc02f5000	-2.7392578
1	0x40d6b429	6.709492
2	0x3ea5b728	0.323663
3	0x40406cef	3.0066488
4	0xc05567de	-3.3344646
5	0x4020ea50	2.5143013
6	0xc023ca98	-2.5592403
7	0x4048afc1	3.1357272
8	0xc01c5a92	-2.443028
9	0xbf289338	-0.6584964
10	0xc06e5937	-3.7241952
11	0xc023909c	-2.5557013
12	0x3ff18948	1.887002
13	0xc0d1e65f	-6.5593715
14	0x41013a43	8.076724
15	0xc0fc89bd	-7.8918138
16	0x405de035	3.4668095
17	0xc0a660da	-5.1993227
18	0x3f429df2	0.76022255
19	0x3f89af68	1.0756655
20	0xc03d11e4	-2.954217
21	0x40804a9f	4.009109
22	0xc036767c	-2.8509817
23	0x403899f8	2.8843975
24	0xc11617cc	-9.38081
25	0x40746f25	3.8192837
26	0x3f4629a3	0.7740728
27	0x40658844	3.586442
28	0xc0014b4e	-2.0202212
29	0x40dda29d	6.9261003
30	0xc02b8520	-2.6800003
31	0x3f1bb2b6	0.60819566
32	0xc000c673	-2.0121124
33	0x4073b928	3.808176
34	0xc069fd59	-3.656088
35	0xbf69ec5f	-0.913763
36	0x40de6814	6.950205
37	0x3fc24653	1.5177711
38	0x403d761f	2.9603345
39	0x3feaa9d5	1.8333079
40	0x40223651	2.5345652
41	0x408c76b4	4.38949
42	0xbf0d4b92	-0.55193436
43	0x4029430d	2.6447175
44	0x40a847c0	5.2587585
45	0xc012ae25	-2.291879
46	0xc110c457	-9.047935
47	0x40aa3b9c	5.3197765
48	0x3f765ea1	0.9623814
49	0xc11b85bc	-9.72015
50	0xbfa7acbb	-1.3099588
51	0x40062cc3	2.096482
52	0x3e89b8b1	0.2689872
53	0xbfd9c9b5	-1.7014681
54	0x40d83f68	6.75774
55	0x3f6490c9	0.89283425
56	0xbfca183e	-1.5788648
57	0x40b7613e	5.7306204
58	0xbdf4a113	-0.11944785
59	0x3fc31d33	1.5243286
60	0x40be4041	5.9453435
61	0xc0572164	-3.361413
62	0xbfa8b1e7	-1.3179291
63	0xc0d78062	-6.7344217

sequential_2/batch_normalization/batchnorm/mul_1;sequential_2/batch_normalization/batchnorm/add_1;sequential_2/dense_6/MatMul;sequential_2/dense_6/Relu;sequential_2/dense_6/BiasAdd i1 [64, 42] scale=0.13435705 zero_point=0
0	0xe5	-3.6276402
1	0x07	0.94049937
2	0x25	4.971211
3	0x05	0.67178524
4	0x04	0.5374282
5	0x03	0.40307117
6	0x09	1.2092135
7	0x10	2.1497128
8	0x08	1.0748564
9	0x17	3.090212
10	0x03	0.40307117
11	0xe6	-3.4932833
12	0x00	0.0
13	0xf1	-2.0153558
14	0xfc	-0.5374282
15	0xf1	-2.0153558
16	0x02	0.2687141
17	0xfe	-0.2687141
18	0xfd	-0.40307117
19	0xf3	-1.7466416
20	0xfd	-0.40307117
21	0xf4	-1.6122847
22	0x07	0.94049937
23	0xfd	-0.40307117
24	0xfa	-0.80614233
25	0xf6	-1.3435705
26	0xde	-4.5681396
27	0x00	0.0
28	0x0b	1.4779276
29	0xf8	-1.0748564
30	0x07	0.94049937
31	0xfc	-0.5374282
32	0xfa	-0.80614233
33	0xf9	-0.94049937
34	0xde	-4.5681396
35	0x11	2.2840698
36	0x04	0.5374282
37	0x03	0.40307117
38	0xff	-0.13435705
39	0x00	0.0
40	0x00	0.0
41	0x07	0.94049937
42	0x0d	1.7466416
43	0xac	-11.285993
44	0x1f	4.1650686
45	0x0d	1.7466416
46	0x10	2.1497128
47	0xff	-0.13435705
48	0x0b	1.4779276
49	0xf9	-0.94049937
50	0x12	2.418427
51	0xf7	-1.2092135
52	0x00	0.0
53	0x1b	3.6276402
54	0x09	1.2092135
55	0x14	2.687141
56	0xf7	-1.2092135
57	0x09	1.2092135
58	0xf4	-1.6122847
59	0x03	0.40307117
60	0x15	2.8214982
61	0x08	1.0748564
62	0x00	0.0
63	0x06	0.80614233
64	0xfd	-0.40307117
65	0x06	0.80614233
66	0xfd	-0.40307117
67	0xf9	-0.94049937
68	0x07	0.94049937
69	0xfe	-0.2687141
70	0xf6	-1.3435705
71	0x02	0.2687141
72	0xfd	-0.40307117
73	0xfd	-0.40307117
74	0x02	0.2687141
75	0xfa	-0.80614233
76	0x18	3.2245693
77	0xff	-0.13435705
78	0xf4	-1.6122847
79	0xff	-0.13435705
80	0xf3	-1.7466416
81	0x01	0.13435705
82	0xf1	-2.0153558
83	0x02	0.2687141
84	0xf3	-1.7466416
85	0xea	-2.9558551
86	0x23	4.7024965
87	0x08	1.0748564
88	0x05	0.67178524
89	0xff	-0.13435705
90	0xf7	-1.2092135
91	0xf8	-1.0748564
92	0x06	0.80614233
93	0x0b	1.4779276
94	0xf7	-1.2092135
95	0x0d	1.7466416
96	0xed	-2.552784
97	0xf4	-1.6122847
98	0x02	0.2687141
99	0xf1	-2.0153558
100	0xff	-0.13435705
101	0xed	-2.552784
102	0xfd	-0.40307117
103	0xfa	-0.80614233
104	0x02	0.2687141
105	0x0d	1.7466416
106	0x01	0.13435705
107	0x07	0.94049937
108	0x0d	1.7466416
109	0x0f	2.0153558
110	0xff	-0.13435705
111	0x07	0.94049937
112	0x04	0.5374282
113	0x01	0.13435705
114	0x08	1.0748564
115	0xf9	-0.94049937
116	0x08	1.0748564
117	0xf4	-1.6122847
118	0xf5	-1.4779276
119	0x01	0.13435705
120	0xfd	-0.40307117
121	0xfe	-0.2687141
122	0x06	0.80614233
123	0x04	0.5374282
124	0xfc	-0.5374282
125	0x06	0.80614233
126	0xcd	-6.8522096
127	0xeb	-2.8214982
128	0x1b	3.6276402
129	0x0f	2.0153558
130	0x18	3.2245693
131	0x00	0.0
132	0x14	2.687141
133	0xfe	-0.2687141
134	0xfa	-0.80614233
135	0x05	0.67178524
136	0xfa	-0.80614233
137	0xfb	-0.67178524
138	0xf1	-2.0153558
139	0xf3	-1.7466416
140	0x10	2.1497128
141	0x01	0.13435705
142	0x0c	1.6122847
143	0xf8	-1.0748564
144	0xf1	-2.0153558
145	0x06	0.80614233
146	0xf8	-1.0748564
147	0xfb	-0.67178524
148	0xfe	-0.2687141
149	0xf7	-1.2092135
150	0xf9	-0.94049937
151	0xf7	-1.2092135
152	0xf7	-1.2092135
153	0x0d	1.7466416
154	0x04	0.5374282
155	0x05	0.67178524
156	0x0c	1.6122847
157	0xfe	-0.2687141
158	0x0f	2.0153558
159	0x05	0.67178524
160	0xfb	-0.67178524
161	0x0b	1.4779276
162	0x05	0.67178524
163	0x07	0.94049937
164	0xf8	-1.0748564
165	0x01	0.13435705
166	0xfe	-0.2687141
167	0x03	0.40307117
168	0xd3	-6.046067
169	0x15	2.8214982
170	0xf8	-1.0748564
171	0xdd	-4.7024965
172	0xf9	-0.94049937
173	0x00	0.0
174	0x00	0.0
175	0xfa	-0.80614233
176	0xfa	-0.80614233
177	0x01	0.13435705
178	0xfb	-0.67178524
179	0xee	-2.418427
180	0xee	-2.418427
181	0xf1	-2.0153558
182	0xfd	-0.40307117
183	0x09	1.2092135
184	0x10	2.1497128
185	0x0d	1.7466416
186	0xf3	-1.7466416
187	0xec	-2.687141
188	0x0d	1.7466416
189	0xf8	-1.0748564
190	0x09	1.2092135
191	0xf6	-1.3435705
192	0x02	0.2687141
193	0x03	0.40307117
194	0xf2	-1.8809987
195	0x03	0.40307117
196	0x0b	1.4779276
197	0x00	0.0
198	0x0a	1.3435705
199	0xfd	-0.40307117
200	0xff	-0.13435705
201	0x03	0.40307117
202	0xe5	-3.6276402
203	0x03	0.40307117
204	0xf3	-1.7466416
205	0x00	0.0
206	0x08	1.0748564
207	0x05	0.67178524
208	0x06	0.80614233
209	0x04	0.5374282
210	0x16	2.9558551
211	0xd1	-6.314781
212	0x26	5.105568
213	0x04	0.5374282
214	0x05	0.67178524
215	0x02	0.2687141
216	0x09	1.2092135
217	0x15	2.8214982
218	0xf9	-0.94049937
219	0x08	1.0748564
220	0x01	0.13435705
221	0x0b	1.4779276
222	0x01	0.13435705
223	0xff	-0.13435705
224	0xf3	-1.7466416
225	0x09	1.2092135
226	0xfc	-0.5374282
227	0x07	0.94049937
228	0x11	2.2840698
229	0x0b	1.4779276
230	0x06	0.80614233
231	0xfc	-0.5374282
232	0xfc	-0.5374282
233	0xfa	-0.80614233
234	0x03	0.40307117
235	0xfa	-0.80614233
236	0x05	0.67178524
237	0x03	0.40307117
238	0x0c	1.6122847
239	0xfa	-0.80614233
240	0x03	0.40307117
241	0xf3	-1.7466416
242	0xf8	-1.0748564
243	0xf3	-1.7466416
244	0x03	0.40307117
245	0x03	0.40307117
246	0xfd	-0.40307117
247	0x02	0.2687141
248	0x01	0.13435705
249	0x03	0.40307117
250	0x08	1.0748564
251	0xfa	-0.80614233
252	0x45	9.270637
253	0xe5	-3.6276402
254	0xd8	-5.374282
255	0x29	5.508639

sequential_2/dense_7/MatMul i1 [32, 64] scale=0.006349739 zero_point=0
0	0x21	0.2095414
1	0x50	0.50797915
2	0xf9	-0.044448175
3	0x20	0.20319165
4	0xf5	-0.06984713
5	0x23	0.22224087
6	0xf6	-0.063497394
7	0xea	-0.13969426
8	0x20	0.20319165
9	0xf5	-0.06984713
10	0xfe	-0.012699478
11	0x38	0.3555854
12	0x10	0.10159583
13	0x0f	0.095246084
14	0x46	0.44448173
15	0x29	0.26033932
16	0x0d	0.08254661
17	0x26	0.24129009
18	0x3e	0.39368382
19	0x13	0.120645046
20	0x1a	0.16509321
21	0x3e	0.39368382
22	0x0d	0.08254661
23	0xf1	-0.095246084
24	0xda	-0.24129009
25	0x39	0.36193514
26	0xde	-0.21589114
27	0xf7	-0.057147652
28	0x30	0.3047875
29	0x02	0.012699478
30	0x21	0.2095414
31	0x15	0.13334452
32	0x2b	0.27303877
33	0xff	-0.006349739
34	0x13	0.120645046
35	0x03	0.019049218
36	0x31	0.31113723
37	0xdd	-0.22224087
38	0x01	0.006349739
39	0xf1	-0.095246084
40	0x33	0.32383668
41	0xda	-0.24129009
42	0x43	0.42543253
43	0xd1	-0.29843774
44	0xeb	-0.13334452
45	0x1a	0.16509321
46	0xfc	-0.025398957
47	0xfb	-0.031748697
48	0xb1	-0.5016294
49	0x05	0.031748697
50	0xbe	-0.4190828
51	0x0e	0.08889635
52	0x37	0.34923565
53	0x3f	0.40003356
54	0x1a	0.16509321
55	0x0f	0.095246084
56	0xfc	-0.025398957
57	0x36	0.3428859
58	0xf7	-0.057147652
59	0x28	0.25398958
60	0x00	0.0
61	0x30	0.3047875
62	0x09	0.057147652
63	0x00	0.0
64	0xd2	-0.292088
65	0x32	0.31748697
66	0xe2	-0.19049217
67	0x08	0.050797913
68	0xd3	-0.28573826
69	0x1b	0.17144296
70	0x25	0.23494035
71	0xe7	-0.15874349
72	0xeb	-0.13334452
73	0xf6	-0.063497394
74	0x26	0.24129009
75	0x19	0.15874349
76	0x04	0.025398957
77	0xe6	-0.16509321
78	0x30	0.3047875
79	0xfb	-0.031748697
80	0x06	0.038098436
81	0x0f	0.095246084
82	0x05	0.031748697
83	0x08	0.050797913
84	0xe2	-0.19049217
85	0x00	0.0
86	0xfc	-0.025398957
87	0x2f	0.29843774
88	0xf1	-0.095246084
89	0x1f	0.19684191
90	0x52	0.52067864
91	0xf6	-0.063497394
92	0xb2	-0.49527964
93	0x37	0.34923565
94	0xfe	-0.012699478
95	0xef	-0.10794557
96	0xfc	-0.025398957
97	0x26	0.24129009
98	0xa4	-0.584176
99	0x8d	-0.73022
100	0x18	0.15239374
101	0xb7	-0.46353096
102	0x1d	0.18414244
103	0x40	0.4063833
104	0xf3	-0.08254661
105	0x19	0.15874349
106	0xf6	-0.063497394
107	0x31	0.31113723
108	0x31	0.31113723
109	0x3c	0.38098434
110	0x1a	0.16509321
111	0x4e	0.49527964
112	0x1c	0.1777927
113	0xf6	-0.063497394
114	0xf4	-0.07619687
115	0x2c	0.27938852
116	0x2f	0.29843774
117	0x0b	0.06984713
118	0x10	0.10159583
119	0x1b	0.17144296
120	0x29	0.26033932
121	0xf9	-0.044448175
122	0x28	0.25398958
123	0x02	0.012699478
124	0xd8	-0.25398958
125	0x3b	0.37463462
126	0x10	0.10159583
127	0xca	-0.3428859
128	0x3f	0.40003356
129	0xf1	-0.095246084
130	0x53	0.5270283
131	0x3f	0.40003356
132	0xe7	-0.15874349
133	0xf5	-0.06984713
134	0x3e	0.39368382
135	0xd4	-0.27938852
136	0x0b	0.06984713
137	0xf4	-0.07619687
138	0xe2	-0.19049217
139	0xf5	-0.06984713
140	0xe3	-0.18414244
141	0xf0	-0.10159583
142	0xf2	-0.08889635
143	0xf0	-0.10159583
144	0x08	0.050797913
145	0xfd	-0.019049218
146	0x1c	0.1777927
147	0xdd	-0.22224087
148	0x27	0.24763982
149	0xf2	-0.08889635
150	0x30	0.3047875
151	0x14	0.12699479
152	0x07	0.044448175
153	0xcf	-0.31113723
154	0xb0	-0.50797915
155	0x43	0.42543253
156	0x22	0.21589114
157	0xcb	-0.33653617
158	0x2c	0.27938852
159	0x15	0.13334452
160	0xf5	-0.06984713
161	0xfd	-0.019049218
162	0x24	0.22859061
163	0x35	0.33653617
164	0x15	0.13334452
165	0x10	0.10159583
166	0x12	0.114295304
167	0x0a	0.063497394
168	0xee	-0.114295304
169	0x1e	0.19049217
170	0x12	0.114295304
171	0x32	0.31748697
172	0x35	0.33653617
173	0xf1	-0.095246084
174	0x2b	0.27303877
175	0xfb	-0.031748697
176	0x05	0.031748697
177	0xfe	-0.012699478
178	0x4e	0.49527964
179	0x08	0.050797913
180	0xe3	-0.18414244
181	0xdd	-0.22224087
182	0x36	0.3428859
183	0x18	0.15239374
184	0x0e	0.08889635
185	0x04	0.025398957
186	0xd0	-0.3047875
187	0x25	0.23494035
188	0x26	0.24129009
189	0xa9	-0.5524273
190	0x08	0.050797913
191	0x11	0.10794557
192	0x0e	0.08889635
193	0x15	0.13334452
194	0x24	0.22859061
195	0xf8	-0.050797913
196	0xfe	-0.012699478
197	0x00	0.0
198	0x3e	0.39368382
199	0x2e	0.292088
200	0xf8	-0.050797913
201	0x0a	0.063497394
202	0xf8	-0.050797913
203	0xdb	-0.23494035
204	0x2b	0.27303877
205	0xc4	-0.38098434
206	0x30	0.3047875
207	0x10	0.10159583
208	0x78	0.7619687
209	0xe7	-0.15874349
210	0xff	-0.006349739
211	0x31	0.31113723
212	0x50	0.50797915
213	0xba	-0.44448173
214	0x22	0.21589114
215	0xea	-0.13969426
216	0xe4	-0.1777927
217	0x10	0.10159583
218	0x0d	0.08254661
219	0xfb	-0.031748697
220	0xf7	-0.057147652
221	0x32	0.31748697
222	0x3b	0.37463462
223	0x56	0.54607755
224	0x20	0.20319165
225	0x40	0.4063833
226	0xcb	-0.33653617
227	0xd2	-0.292088
228	0x0f	0.095246084
229	0x03	0.019049218
230	0x38	0.3555854
231	0xf8	-0.050797913
232	0xee	-0.114295304
233	0xf5	-0.06984713
234	0xf5	-0.06984713
235	0x0f	0.095246084
236	0x12	0.114295304
237	0x47	0.45083147
238	0xdc	-0.22859061
239	0x1e	0.19049217
240	0x5b	0.57782626
241	0x41	0.41273305
242	0x47	0.45083147
243	0xff	-0.006349739
244	0xa4	-0.584176
245	0xce	-0.31748697
246	0x21	0.2095414
247	0xde	-0.21589114
248	0xf4	-0.07619687
249	0x26	0.24129009
250	0xe6	-0.16509321
251	0xe5	-0.17144296
252	0x2f	0.29843774
253	0xf3	-0.08254661
254	0x21	0.2095414
255	0xc5	-0.37463462
