android/app/src/main/assets/point_history_classifier16xx.tflite (tflite, 38344 bytes, 8 tensors)

sequential/dense/BiasAdd/ReadVariableOp f4 [64]
00000000: b3c0 583e 6a49 c83e a9c5 10bf df96 e1bd
00000010: 05a5 abbe 7bbb 843d 34d2 583f aecc 2b3d
00000020: 878f bebb c032 843e 4c84 0ebe 052d 153e
00000030: 34b0 463e 2c28 8d3c 3b89 a93e a31f 38bd
00000040: 9297 c13e 9764 f53e 78c6 f3bd 01df 5d3d
00000050: e71d 8a3e 402e e03e 50ff e53c 545b aabe
00000060: 7cf0 3d3f 97f4 0c3f da36 2d3f 63d1 d7bd
00000070: 33fe 6a3e 8f1f c4be b5eb bd3e ea71 133e
00000080: c6a9 c23c 9280 9a3c 2720 ab3c a63d 4dbe
00000090: b7ec 9c3d 009e 8c3e ca7d ca3e f4bd 8c3e
000000a0: 5a09 0f3e c989 1b3f aec8 3fbd 9946 8a3e
000000b0: fdf3 ae3e 8965 0b3f 596d 643e a4c8 8e3c
000000c0: 927b 8f3d c77e 99bd 4824 083f 3ce4 253e
000000d0: 5e9e c5be 72bf 6c3e 4f45 3a3e 8b11 353e
000000e0: 4f99 8abe 95bb 9b3e 2822 533e fb28 073e
000000f0: bbf4 ab3d 6c64 d5bd 8d60 1ebe ae6a f8bd
0.21167259 0.3911851 -0.56551605 -0.110151045 -0.33524337 0.064810716 0.84695745 0.041943245
-0.0058154496 0.2581997 -0.13917655 0.14567955 0.19403154 0.01723107 0.3311251 -0.044952046
0.3781095 0.47928306 -0.11903089 0.05416775 0.2697594 0.43785286 0.028075844 -0.33272803
0.74195075 0.55060714 0.6766182 -0.10537984 0.22948532 -0.38305327 0.37093893 0.14398924
0.023762595 0.018860135 0.020889355 -0.20043048 0.07662337 0.27464294 0.39549094 0.27488673
0.13968411 0.6075712 -0.046822242 0.27006987 0.34170523 0.54451805 0.22307338 0.017429657
0.07005991 -0.07494884 0.5318036 0.16200346 -0.38597387 0.23119906 0.18190502 0.17682473
-0.2707009 0.3041655 0.20618498 0.13199227 0.08396288 -0.104195446 -0.15466519 -0.121297225

sequential/lstm/Read_2/ReadVariableOp f4 [256]
00000000: 00c0 f9be 3b1c bebe fed3 28bf 00f8 9bbf
00000010: ca4d adbe a0cd 88bf 799c 5abf a882 50bf
00000020: cf99 b03d 40b9 91bf 6032 3ebf 84ec e1be
00000030: 0c48 abbe 8b5c 94bf b57d 64bf 9aa3 96bf
00000040: 80b6 35bf e7e1 1abf a8bc 79bf ea12 b83e
00000050: 0a8e 3ebf 695f 31bf 0116 3ebf 0819 90bf
00000060: 280f fabe d1ee 56bf bb4e d13e 6218 33bf
00000070: e530 46bf d7a4 113d d1e8 1abf a426 e0be
00000080: c3bc 17bf 05a0 5cbf 4d02 73bf 61ef a9bf
00000090: f36a 4fbf 2134 29bf 9bb7 52bf 68d1 27bf
000000a0: 048d f1be c861 8bbe 81fd 71bf 9583 57bf
000000b0: c5ce 6dbf 3b5f 3ebf d007 67bf 8ed9 683e
000000c0: 81c8 4dbc eae3 22bf 986a 5bbf 08a6 97bf
000000d0: 25e2 0c3f bbf4 50bf 2b2a 00bf f95d acbf
000000e0: 50af 57bf f188 7bbf 01a2 6bbf e108 9e3e
000000f0: 00a0 bcbd ba73 90bf ce53 88bf 2778 5fbf
00000100: 116c 853f a089 613f 19f8 4e3f 5302 cf3f
00000110: 0081 b53f e278 cb3f cdf3 323f cdf0 203f
00000120: b338 64bf bcee fc3e d7e3 7c3f 156e 623f
00000130: d153 333f e77f a03f ef2e 353f f578 293f
00000140: f177 c13f 26ee 9b3f ce4c e33f 6a97 233f
00000150: dd92 853f 4f60 963f b66b c43e fbe0 763f
00000160: c790 97bc efc3 9e3f 9967 143e 92e6 683f
00000170: 21bc 393f f8fb 763e f483 ca3f 60ad 8a3f
00000180: 35de 693f 3b7d d43e 04e4 793f 39b4 ed3f
00000190: cb5b 813f c1ca b83f b38c a03f c9b7 8d3f
000001a0: 217e 5e3f a942 913f c1e8 9d3f 0513 a83f
000001b0: 493f bb3e e184 923f f9b1 6d3e 30f5 253f
000001c0: ef1e 203e aee3 183f 1428 7e3f 73fb 5f3f
000001d0: 39ed 4a3f f31f 4a3f 8684 713f d662 873f
000001e0: 2524 7c3f 075b b73f d925 203f 5ca0 3d3f
000001f0: 53c4 bc3e db3e 003f 2949 e93e cfd8 833f
00000200: 2ed2 3c3d e70d fdbd c1ee f0bd df08 37be
00000210: ddb0 733d ab6d 3c3d 82dd 3a3e e34b ef3c
00000220: 0472 333d a71d 85bd 509c d13d 405b 2ebd
00000230: a5d2 86be 825a c73c a4f7 c3bd 6922 f7bc
00000240: 1372 d43c b1f9 e03c 50d8 a6be 0434 113d
00000250: ed49 2fbb b303 b83d d6aa 72be 11ab e5bd
00000260: e777 03be e910 d03d 5d97 e1bd 47d2 3f3e
00000270: 22bc 623c f8b6 633d b223 13be 8d24 babd
00000280: 1266 043b 69e1 c2bd 917f 16bd 63c4 14be
00000290: 599b 513d c5db 85bd 0418 77bb 508d 02be
000002a0: 6e68 eabd 90a2 bd3d 7689 403e 98c8 823d
000002b0: 3310 903b 472a bd3d 78bd 933d bb8c 1ebd
000002c0: 3353 3c3e 90c6 c83d 84b0 f73d 4fcc 6fbd
000002d0: 9b23 a43c b8c9 133d 4ddc 00bc 1438 f13d
000002e0: e1fe 35bc c670 19bd e0f5 423e 852e 2a3d
000002f0: 6b9a 07be 9b6b 09be 2c07 20be 2146 57be
00000300: ad3e 57bf b3ee 0cbf fb7d 0cbf 7719 a23e
00000310: 25ed ebbe 8810 19bf 5384 20bf bf9a 1abf
00000320: 7a2e b4be 15d8 61bf 4129 51bf d808 52bf
00000330: b604 f0be fdc7 59bf e3e2 8bbf f479 3cbf
00000340: 8749 25bf 43bf 2dbf 12cb d7be aab2 973e
00000350: d68a 23bf 16e6 75bf 352f 3ebf 3035 51bf
00000360: b5fd b9be 6b4b 6abf 9bb1 d33e f4bf 3bbf
00000370: 8ddb 3fbf d4e4 52bd 34c7 1cbf 385d a7be
00000380: c795 2ebf 9988 52bf 10d6 55bf 06f2 87bc
00000390: d548 3dbf c5c7 00bf dc5d 5bbe 02bc 14bf
000003a0: 9b70 fabe 1db8 1bbf fe84 51bf fba4 30bf
000003b0: 1d3d 9bbe ee0f 4dbf 72dd 6fbf 5269 28bc
000003c0: 224b bd3d 5fa7 acbe 4d76 75bf 8113 93bf
000003d0: 8762 633f dae6 6fbf 4735 dbbe ad8d 2abf
000003e0: 60ae fabe 3784 0fbf c692 76bf 8dbd bf3e
000003f0: 4be3 273d 372d 74bf e06b 6bbf aaf0 21bf
-0.48779297 -0.37130913 -0.65948474 -1.2185059 -0.3384841 -1.0687752 -0.8539501 -0.81449366
0.08623087 -1.1384659 -0.74295616 -0.4412576 -0.33453405 -1.1590742 -0.89254314 -1.1768677
-0.709816 -0.6050095 -0.9755349 0.3595193 -0.74435484 -0.6928621 -0.74252325 -1.1257639
-0.48839688 -0.83958155 0.4088038 -0.6995908 -0.7741836 0.035557594 -0.605115 -0.4377948
-0.592724 -0.8618167 -0.94925386 -1.3276178 -0.81022567 -0.6609517 -0.8231141 -0.65553904
-0.471779 -0.2722304 -0.9452744 -0.84185153 -0.9289363 -0.7436406 -0.90246296 0.2273924
-0.012560011 -0.6362902 -0.85709524 -1.1847544 0.5503257 -0.8162343 -0.50064343 -1.3466178
-0.8425188 -0.9825583 -0.92044073 0.3086615 -0.09210205 -1.1285317 -1.0650575 -0.8729271
1.0423604 0.88100624 0.80847317 1.6172584 1.4179993 1.5896266 0.6990326 0.6286743
-0.89149016 0.4940089 0.98785156 0.8844922 0.7004977 1.2539033 0.7077474 0.6620019
1.5114728 1.2182052 1.7757814 0.63902915 1.0435444 1.1748141 0.38363427 0.9643704
-0.018501652 1.2403544 0.14492644 0.9097682 0.72552687 0.24119556 1.5821519 1.083416
0.91354686 0.41501793 0.9761355 1.8570625 1.0106138 1.4436876 1.2542938 1.1071712
0.8691121 1.1348468 1.2336656 1.3130804 0.3657172 1.1446801 0.23212422 0.6482725
0.156368 0.5972241 0.99279904 0.87493056 0.79268223 0.78955 0.9434284 1.0577037
0.9849265 1.4324654 0.6255775 0.74072814 0.36868533 0.5009591 0.4556363 1.030054
0.04609888 -0.12356167 -0.11764289 -0.17874478 0.05949484 0.046003025 0.18248561 0.02921099
0.043809906 -0.06499796 0.10234892 -0.04256749 -0.26332584 0.02433515 -0.09568718 -0.030167775
0.025933301 0.027462812 -0.32586908 0.035449997 -0.0026746944 0.089850806 -0.23697981 -0.11214269
-0.12838708 0.10159475 -0.110151984 0.18732558 0.0138388 0.055594414 -0.14369085 -0.09089003
0.002020244 -0.0951565 -0.03674275 -0.1452804 0.05117354 -0.06536058 -0.0037703523 -0.12749219
-0.114457 0.09259522 0.18802437 0.063859165 0.0043964623 0.092365794 0.07213873 -0.03870843
0.18391113 0.09803498 0.120942146 -0.058544453 0.02003651 0.036081046 -0.007865024 0.11778274
-0.011108131 -0.037461065 0.19039106 0.04154827 -0.132425 -0.13419954 -0.15627736 -0.21022846
-0.8408001 -0.55051726 -0.5487973 0.31660053 -0.46079364 -0.5979085 -0.6270191 -0.60392374
-0.3519171 -0.8822034 -0.81703573 -0.82044744 -0.46878594 -0.8507078 -1.0928615 -0.73623586
-0.6456532 -0.6786997 -0.42147118 0.29628497 -0.6388372 -0.9605421 -0.7429078 -0.8172178
-0.36326376 -0.9152133 0.4134644 -0.7333977 -0.7494438 -0.05148776 -0.6124146 -0.32688308
-0.6819729 -0.8223968 -0.8352976 -0.016594898 -0.7393926 -0.50304824 -0.21422523 -0.5809938
-0.48914036 -0.6082781 -0.81843555 -0.6900174 -0.30320063 -0.8010243 -0.93697274 -0.010279017
0.09242846 -0.33721444 -0.9588364 -1.1490327 0.88822216 -0.93711627 -0.42814085 -0.6662243
-0.48961163 -0.5606112 -0.9631771 0.37449303 0.040988248 -0.9538149 -0.9196148 -0.6325785

sequential/dense_1/MatMul;sequential/dense_1/BiasAdd f4 [22]
00000000: 5749 bc3e 4353 a23e fc90 2a3f cfc5 46bf
00000010: 3874 5540 755e 6140 37a3 0a40 8745 60bf
00000020: 52d9 3040 8d01 12bf 389d e040 10fd 8840
00000030: aba9 963e 6019 b340 b1f1 0040 bbda 463f
00000040: 21f8 97c0 6218 5f40 ae7f 4740 ee2c 7240
00000050: e0cc a740 c5bd 1840
0.36774704 0.3170415 0.6662748 -0.7764558 3.3352184 3.5213902 2.1662118 -0.8760609
2.7632642 -0.57033616 7.0191917 4.2808914 0.2942632 5.5968475 2.0147517 0.77677506
-4.749039 3.4858632 3.117168 3.7839923 5.243759 2.3865826

sequential/batch_normalization/batchnorm/mul_1;sequential/batch_normalization/batchnorm/add_1;sequential/dense_1/MatMul;sequential/dense_1/BiasAdd i1 [22, 64] scale=0.030397648 zero_point=0
00000000: 1a00 3ae6 a911 e5e6 d8ed ff00 c210 2304
00000010: feeb dbde 0b25 faf6 01e7 02f3 d8e6 01f8
00000020: dc12 e10e 0e17 1309 e0f9 150e 1efb ca1f
00000030: e71b 0cf7 0cfc 15e9 19fb ca17 c5e6 1afe
00000040: 110f db01 e80c ccf8 fe18 eeb7 16ca 170a
00000050: f7ec fc03 f4e9 0335 e515 cce7 fdf6 290d
00000060: 1218 f40c 0cf8 d1a6 05e9 0903 fc2a 070e
00000070: 06e9 f7d7 daff d71d 1301 01ea fae4 fef1
00000080: c4f2 f902 08f6 d907 04cd eb07 dafa 1ffd
00000090: 0c16 12fd f1ff e613 f005 e434 f6dc 2e0a
000000a0: f0fe e11e ddff 12b8 0a11 0eec 08f1 c913
000000b0: e905 20ce d9e7 eaed fb12 f407 e4f0 0224
000000c0: a30f 2ef7 d70b 03d4 d005 0cb0 ec0c 2e18
000000d0: f8e6 bc0e 17cb e7ef 2504 ebcf 00fa 29f8
000000e0: 0512 ec12 44d4 0df2 f412 eef8 0af8 ff06
000000f0: d8ef 120c 12e5 fde3 ecfb d20c d405 0912
0.7903389 0.0 1.7630635 -0.7903389 -2.6445954 0.51676 -0.82073647 -0.7903389
-1.2159059 -0.5775553 -0.030397648 0.0 -1.8846542 0.48636237 1.0639176 0.12159059
-0.060795296 -0.6383506 -1.124713 -1.03352 0.33437413 1.124713 -0.18238589 -0.30397648
0.030397648 -0.7599412 0.060795296 -0.39516944 -1.2159059 -0.7903389 0.030397648 -0.24318118
-1.0943153 0.54715765 -0.9423271 0.42556706 0.42556706 0.6991459 0.5775553 0.27357882
-0.97272474 -0.21278353 0.6383506 0.42556706 0.9119294 -0.15198824 -1.6414729 0.9423271
-0.7599412 0.82073647 0.36477178 -0.27357882 0.36477178 -0.12159059 0.6383506 -0.6991459
0.7599412 -0.15198824 -1.6414729 0.6991459 -1.7934612 -0.7903389 0.7903389 -0.060795296
0.51676 0.4559647 -1.124713 0.030397648 -0.72954357 0.36477178 -1.5806777 -0.24318118
-0.060795296 0.72954357 -0.54715765 -2.2190282 0.66874826 -1.6414729 0.6991459 0.30397648
-0.27357882 -0.60795295 -0.12159059 0.091192946 -0.36477178 -0.6991459 0.091192946 1.6110754
-0.82073647 0.6383506 -1.5806777 -0.7599412 -0.091192946 -0.30397648 1.2463036 0.39516944
0.54715765 0.72954357 -0.36477178 0.36477178 0.36477178 -0.24318118 -1.4286895 -2.7357883
0.15198824 -0.6991459 0.27357882 0.091192946 -0.12159059 1.2767012 0.21278353 0.42556706
0.18238589 -0.6991459 -0.27357882 -1.2463036 -1.1551106 -0.030397648 -1.2463036 0.8815318
0.5775553 0.030397648 0.030397648 -0.66874826 -0.18238589 -0.8511341 -0.060795296 -0.4559647
-1.8238589 -0.42556706 -0.21278353 0.060795296 0.24318118 -0.30397648 -1.1855083 0.21278353
0.12159059 -1.5502801 -0.6383506 0.21278353 -1.1551106 -0.18238589 0.9423271 -0.091192946
0.36477178 0.66874826 0.54715765 -0.091192946 -0.4559647 -0.030397648 -0.7903389 0.5775553
-0.48636237 0.15198824 -0.8511341 1.5806777 -0.30397648 -1.0943153 1.3982918 0.30397648
-0.48636237 -0.060795296 -0.9423271 0.9119294 -1.0639176 -0.030397648 0.54715765 -2.1886306
0.30397648 0.51676 0.42556706 -0.60795295 0.24318118 -0.4559647 -1.6718706 0.5775553
-0.6991459 0.15198824 0.97272474 -1.5198824 -1.1855083 -0.7599412 -0.66874826 -0.5775553
-0.15198824 0.54715765 -0.36477178 0.21278353 -0.8511341 -0.48636237 0.060795296 1.0943153
-2.8269813 0.4559647 1.3982918 -0.27357882 -1.2463036 0.33437413 0.091192946 -1.3374965
-1.4590871 0.15198824 0.36477178 -2.4318118 -0.60795295 0.36477178 1.3982918 0.72954357
-0.24318118 -0.7903389 -2.06704 0.42556706 0.6991459 -1.6110754 -0.7599412 -0.51676
1.124713 0.12159059 -0.6383506 -1.4894848 0.0 -0.18238589 1.2463036 -0.24318118
0.15198824 0.54715765 -0.60795295 0.54715765 2.06704 -1.3374965 0.39516944 -0.42556706
-0.36477178 0.54715765 -0.54715765 -0.24318118 0.30397648 -0.24318118 -0.030397648 0.18238589
-1.2159059 -0.51676 0.54715765 0.36477178 0.54715765 -0.82073647 -0.091192946 -0.8815318
-0.60795295 -0.15198824 -1.3982918 0.36477178 -1.3374965 0.15198824 0.27357882 0.54715765

sequential/dense/MatMul i1 [64, 64] scale=0.024414632 zero_point=0
00000000: f3f1 faf2 fbee 030b f5f9 dad6 fe05 25f6
00000010: 1423 fa02 f63d e7f9 0d09 f9fe 1400 0dfb
00000020: fa02 f2dd f607 f2e4 0bf6 d8fc 050d fb0f
00000030: e6f6 0718 f8f8 04f2 f6d5 07fe fd01 ffe2
00000040: fe04 1118 e403 d3ed ee22 04f6 2309 01fc
00000050: 0b46 1101 0212 08ff 0307 f1f8 f509 0f0a
00000060: f601 060d fb03 eef9 e5e4 fee2 11f1 0fe5
00000070: 0bf4 0201 020f 0ff6 d30a f312 fe20 08fc
00000080: fbe3 02ff f6fe 0619 e40c 0010 0d09 0e05
00000090: 0412 f10e 03fa eaef ec00 cff4 16f9 0909
000000a0: fd01 eeff e30b f6f9 05f4 02fe 080b 0ef5
000000b0: 31f6 0106 f304 0110 1112 feee e703 0c11
000000c0: 022a 2c12 0ffe f601 b7e2 03f1 18e6 1702
000000d0: f202 fbe2 fd03 e5de 2802 081e f0f1 fa0f
000000e0: 0100 fe09 f3fe 0efe fffc fef9 0010 0b07
000000f0: 2f1c faf9 10fd fde8 fc04 0215 cdff 0d12
-0.31739023 -0.3662195 -0.1464878 -0.34180486 -0.12207316 -0.43946338 0.0732439 0.26856095
-0.26856095 -0.17090243 -0.927756 -1.0254146 -0.048829265 0.12207316 0.9033414 -0.24414632
0.48829263 0.85451216 -0.1464878 0.048829265 -0.24414632 1.4892926 -0.6103658 -0.17090243
0.31739023 0.21973169 -0.17090243 -0.048829265 0.48829263 0.0 0.31739023 -0.12207316
-0.1464878 0.048829265 -0.34180486 -0.85451216 -0.24414632 0.17090243 -0.34180486 -0.6836097
0.26856095 -0.24414632 -0.97658527 -0.09765853 0.12207316 0.31739023 -0.12207316 0.3662195
-0.63478047 -0.24414632 0.17090243 0.5859512 -0.19531706 -0.19531706 0.09765853 -0.34180486
-0.24414632 -1.0498292 0.17090243 -0.048829265 -0.0732439 0.024414632 -0.024414632 -0.732439
-0.048829265 0.09765853 0.41504875 0.5859512 -0.6836097 0.0732439 -1.0986584 -0.463878
-0.43946338 0.8300975 0.09765853 -0.24414632 0.85451216 0.21973169 0.024414632 -0.09765853
0.26856095 1.7090243 0.41504875 0.024414632 0.048829265 0.43946338 0.19531706 -0.024414632
0.0732439 0.17090243 -0.3662195 -0.19531706 -0.26856095 0.21973169 0.3662195 0.24414632
-0.24414632 0.024414632 0.1464878 0.31739023 -0.12207316 0.0732439 -0.43946338 -0.17090243
-0.65919507 -0.6836097 -0.048829265 -0.732439 0.41504875 -0.3662195 0.3662195 -0.65919507
0.26856095 -0.2929756 0.048829265 0.024414632 0.048829265 0.3662195 0.3662195 -0.24414632
-1.0986584 0.24414632 -0.31739023 0.43946338 -0.048829265 0.78126824 0.19531706 -0.09765853
-0.12207316 -0.7080243 0.048829265 -0.024414632 -0.24414632 -0.048829265 0.1464878 0.6103658
-0.6836097 0.2929756 0.0 0.39063412 0.31739023 0.21973169 0.34180486 0.12207316
0.09765853 0.43946338 -0.3662195 0.34180486 0.0732439 -0.1464878 -0.5371219 -0.41504875
-0.48829263 0.0 -1.196317 -0.2929756 0.5371219 -0.17090243 0.21973169 0.21973169
-0.0732439 0.024414632 -0.43946338 -0.024414632 -0.7080243 0.26856095 -0.24414632 -0.17090243
0.12207316 -0.2929756 0.048829265 -0.048829265 0.19531706 0.26856095 0.34180486 -0.26856095
1.196317 -0.24414632 0.024414632 0.1464878 -0.31739023 0.09765853 0.024414632 0.39063412
0.41504875 0.43946338 -0.048829265 -0.43946338 -0.6103658 0.0732439 0.2929756 0.41504875
0.048829265 1.0254146 1.0742438 0.43946338 0.3662195 -0.048829265 -0.24414632 0.024414632
-1.7822682 -0.732439 0.0732439 -0.3662195 0.5859512 -0.63478047 0.56153655 0.048829265
-0.34180486 0.048829265 -0.12207316 -0.732439 -0.0732439 0.0732439 -0.65919507 -0.8300975
0.97658527 0.048829265 0.19531706 0.732439 -0.39063412 -0.3662195 -0.1464878 0.3662195
0.024414632 0.0 -0.048829265 0.21973169 -0.31739023 -0.048829265 0.34180486 -0.048829265
-0.024414632 -0.09765853 -0.048829265 -0.17090243 0.0 0.39063412 0.26856095 0.17090243
1.1474878 0.6836097 -0.1464878 -0.17090243 0.39063412 -0.0732439 -0.0732439 -0.5859512
-0.09765853 0.09765853 0.048829265 0.5127073 -1.2451463 -0.024414632 0.31739023 0.43946338

sequential/lstm/Read_2/ReadVariableOp1 f4 [256]
00000000: 00c0 f9be 3b1c bebe fed3 28bf 00f8 9bbf
00000010: ca4d adbe a0cd 88bf 799c 5abf a882 50bf
00000020: cf99 b03d 40b9 91bf 6032 3ebf 84ec e1be
00000030: 0c48 abbe 8b5c 94bf b57d 64bf 9aa3 96bf
00000040: 80b6 35bf e7e1 1abf a8bc 79bf ea12 b83e
00000050: 0a8e 3ebf 695f 31bf 0116 3ebf 0819 90bf
00000060: 280f fabe d1ee 56bf bb4e d13e 6218 33bf
00000070: e530 46bf d7a4 113d d1e8 1abf a426 e0be
00000080: c3bc 17bf 05a0 5cbf 4d02 73bf 61ef a9bf
00000090: f36a 4fbf 2134 29bf 9bb7 52bf 68d1 27bf
000000a0: 048d f1be c861 8bbe 81fd 71bf 9583 57bf
000000b0: c5ce 6dbf 3b5f 3ebf d007 67bf 8ed9 683e
000000c0: 81c8 4dbc eae3 22bf 986a 5bbf 08a6 97bf
000000d0: 25e2 0c3f bbf4 50bf 2b2a 00bf f95d acbf
000000e0: 50af 57bf f188 7bbf 01a2 6bbf e108 9e3e
000000f0: 00a0 bcbd ba73 90bf ce53 88bf 2778 5fbf
00000100: 116c 853f a089 613f 19f8 4e3f 5302 cf3f
00000110: 0081 b53f e278 cb3f cdf3 323f cdf0 203f
00000120: b338 64bf bcee fc3e d7e3 7c3f 156e 623f
00000130: d153 333f e77f a03f ef2e 353f f578 293f
00000140: f177 c13f 26ee 9b3f ce4c e33f 6a97 233f
00000150: dd92 853f 4f60 963f b66b c43e fbe0 763f
00000160: c790 97bc efc3 9e3f 9967 143e 92e6 683f
00000170: 21bc 393f f8fb 763e f483 ca3f 60ad 8a3f
00000180: 35de 693f 3b7d d43e 04e4 793f 39b4 ed3f
00000190: cb5b 813f c1ca b83f b38c a03f c9b7 8d3f
000001a0: 217e 5e3f a942 913f c1e8 9d3f 0513 a83f
000001b0: 493f bb3e e184 923f f9b1 6d3e 30f5 253f
000001c0: ef1e 203e aee3 183f 1428 7e3f 73fb 5f3f
000001d0: 39ed 4a3f f31f 4a3f 8684 713f d662 873f
000001e0: 2524 7c3f 075b b73f d925 203f 5ca0 3d3f
000001f0: 53c4 bc3e db3e 003f 2949 e93e cfd8 833f
00000200: 2ed2 3c3d e70d fdbd c1ee f0bd df08 37be
00000210: ddb0 733d ab6d 3c3d 82dd 3a3e e34b ef3c
00000220: 0472 333d a71d 85bd 509c d13d 405b 2ebd
00000230: a5d2 86be 825a c73c a4f7 c3bd 6922 f7bc
00000240: 1372 d43c b1f9 e03c 50d8 a6be 0434 113d
00000250: ed49 2fbb b303 b83d d6aa 72be 11ab e5bd
00000260: e777 03be e910 d03d 5d97 e1bd 47d2 3f3e
00000270: 22bc 623c f8b6 633d b223 13be 8d24 babd
00000280: 1266 043b 69e1 c2bd 917f 16bd 63c4 14be
00000290: 599b 513d c5db 85bd 0418 77bb 508d 02be
000002a0: 6e68 eabd 90a2 bd3d 7689 403e 98c8 823d
000002b0: 3310 903b 472a bd3d 78bd 933d bb8c 1ebd
000002c0: 3353 3c3e 90c6 c83d 84b0 f73d 4fcc 6fbd
000002d0: 9b23 a43c b8c9 133d 4ddc 00bc 1438 f13d
000002e0: e1fe 35bc c670 19bd e0f5 423e 852e 2a3d
000002f0: 6b9a 07be 9b6b 09be 2c07 20be 2146 57be
00000300: ad3e 57bf b3ee 0cbf fb7d 0cbf 7719 a23e
00000310: 25ed ebbe 8810 19bf 5384 20bf bf9a 1abf
00000320: 7a2e b4be 15d8 61bf 4129 51bf d808 52bf
00000330: b604 f0be fdc7 59bf e3e2 8bbf f479 3cbf
00000340: 8749 25bf 43bf 2dbf 12cb d7be aab2 973e
00000350: d68a 23bf 16e6 75bf 352f 3ebf 3035 51bf
00000360: b5fd b9be 6b4b 6abf 9bb1 d33e f4bf 3bbf
00000370: 8ddb 3fbf d4e4 52bd 34c7 1cbf 385d a7be
00000380: c795 2ebf 9988 52bf 10d6 55bf 06f2 87bc
00000390: d548 3dbf c5c7 00bf dc5d 5bbe 02bc 14bf
000003a0: 9b70 fabe 1db8 1bbf fe84 51bf fba4 30bf
000003b0: 1d3d 9bbe ee0f 4dbf 72dd 6fbf 5269 28bc
000003c0: 224b bd3d 5fa7 acbe 4d76 75bf 8113 93bf
000003d0: 8762 633f dae6 6fbf 4735 dbbe ad8d 2abf
000003e0: 60ae fabe 3784 0fbf c692 76bf 8dbd bf3e
000003f0: 4be3 273d 372d 74bf e06b 6bbf aaf0 21bf
-0.48779297 -0.37130913 -0.65948474 -1.2185059 -0.3384841 -1.0687752 -0.8539501 -0.81449366
0.08623087 -1.1384659 -0.74295616 -0.4412576 -0.33453405 -1.1590742 -0.89254314 -1.1768677
-0.709816 -0.6050095 -0.9755349 0.3595193 -0.74435484 -0.6928621 -0.74252325 -1.1257639
-0.48839688 -0.83958155 0.4088038 -0.6995908 -0.7741836 0.035557594 -0.605115 -0.4377948
-0.592724 -0.8618167 -0.94925386 -1.3276178 -0.81022567 -0.6609517 -0.8231141 -0.65553904
-0.471779 -0.2722304 -0.9452744 -0.84185153 -0.9289363 -0.7436406 -0.90246296 0.2273924
-0.012560011 -0.6362902 -0.85709524 -1.1847544 0.5503257 -0.8162343 -0.50064343 -1.3466178
-0.8425188 -0.9825583 -0.92044073 0.3086615 -0.09210205 -1.1285317 -1.0650575 -0.8729271
1.0423604 0.88100624 0.80847317 1.6172584 1.4179993 1.5896266 0.6990326 0.6286743
-0.89149016 0.4940089 0.98785156 0.8844922 0.7004977 1.2539033 0.7077474 0.6620019
1.5114728 1.2182052 1.7757814 0.63902915 1.0435444 1.1748141 0.38363427 0.9643704
-0.018501652 1.2403544 0.14492644 0.9097682 0.72552687 0.24119556 1.5821519 1.083416
0.91354686 0.41501793 0.9761355 1.8570625 1.0106138 1.4436876 1.2542938 1.1071712
0.8691121 1.1348468 1.2336656 1.3130804 0.3657172 1.1446801 0.23212422 0.6482725
0.156368 0.5972241 0.99279904 0.87493056 0.79268223 0.78955 0.9434284 1.0577037
0.9849265 1.4324654 0.6255775 0.74072814 0.36868533 0.5009591 0.4556363 1.030054
0.04609888 -0.12356167 -0.11764289 -0.17874478 0.05949484 0.046003025 0.18248561 0.02921099
0.043809906 -0.06499796 0.10234892 -0.04256749 -0.26332584 0.02433515 -0.09568718 -0.030167775
0.025933301 0.027462812 -0.32586908 0.035449997 -0.0026746944 0.089850806 -0.23697981 -0.11214269
-0.12838708 0.10159475 -0.110151984 0.18732558 0.0138388 0.055594414 -0.14369085 -0.09089003
0.002020244 -0.0951565 -0.03674275 -0.1452804 0.05117354 -0.06536058 -0.0037703523 -0.12749219
-0.114457 0.09259522 0.18802437 0.063859165 0.0043964623 0.092365794 0.07213873 -0.03870843
0.18391113 0.09803498 0.120942146 -0.058544453 0.02003651 0.036081046 -0.007865024 0.11778274
-0.011108131 -0.037461065 0.19039106 0.04154827 -0.132425 -0.13419954 -0.15627736 -0.21022846
-0.8408001 -0.55051726 -0.5487973 0.31660053 -0.46079364 -0.5979085 -0.6270191 -0.60392374
-0.3519171 -0.8822034 -0.81703573 -0.82044744 -0.46878594 -0.8507078 -1.0928615 -0.73623586
-0.6456532 -0.6786997 -0.42147118 0.29628497 -0.6388372 -0.9605421 -0.7429078 -0.8172178
-0.36326376 -0.9152133 0.4134644 -0.7333977 -0.7494438 -0.05148776 -0.6124146 -0.32688308
-0.6819729 -0.8223968 -0.8352976 -0.016594898 -0.7393926 -0.50304824 -0.21422523 -0.5809938
-0.48914036 -0.6082781 -0.81843555 -0.6900174 -0.30320063 -0.8010243 -0.93697274 -0.010279017
0.09242846 -0.33721444 -0.9588364 -1.1490327 0.88822216 -0.93711627 -0.42814085 -0.6662243
-0.48961163 -0.5606112 -0.9631771 0.37449303 0.040988248 -0.9538149 -0.9196148 -0.6325785

while/MatMul_11 i1 [256, 64] scale=0.027757434 zero_point=0
00000000: e7e2 fcdc efef 201a 1907 10ec 0529 faeb
00000010: 1a0c dddc e703 dfca d6f3 e0db 0ef8 1e0d
00000020: 1414 d1d4 11f7 01f0 0ef8 0212 18d7 22d5
00000030: eefe fd01 05f3 f018 14d3 04fe 0300 0bd8
00000040: fc03 f2fe 130d fffd f8f9 1805 2502 f7f3
00000050: f618 1110 f405 0806 00e5 c411 00e7 f1ec
00000060: 0a31 1320 1eeb 1c16 0d21 15fd 0312 05ec
00000070: 1611 f7e6 a413 f117 0421 2629 d113 fe11
00000080: 14e8 e2f7 04f8 e511 043c f9ed 08fe fce3
00000090: f42c fe0d 18f5 00e6 fde6 d3f9 2ef9 f508
000000a0: fce7 06ef e7fd f4e6 1212 f1f2 e700 06ae
000000b0: 11d5 fc29 f8f3 deec ebf0 1cf2 d001 07ff
000000c0: 13f1 cbb1 09dd 0309 031e fe01 ffca 3bc4
000000d0: 11e3 c7e0 3cd1 f90c 0ed4 f704 040e ff16
000000e0: 211a de19 fdca e1ed 0d18 200a fc13 0d0d
000000f0: de05 dc00 ee1a ef18 1eed 0a09 01c6 f9de
-0.6939359 -0.832723 -0.11102974 -0.99926764 -0.47187638 -0.47187638 0.8882379 0.7216933
0.6939359 0.19430204 0.44411895 -0.55514866 0.13878717 1.1380548 -0.1665446 -0.5829061
0.7216933 0.3330892 -0.9715102 -0.99926764 -0.6939359 0.0832723 -0.9159953 -1.4989015
-1.1658123 -0.36084664 -0.8882379 -1.0270251 0.38860407 -0.22205947 0.832723 0.36084664
0.55514866 0.55514866 -1.3045994 -1.2213271 0.47187638 -0.24981691 0.027757434 -0.44411895
0.38860407 -0.22205947 0.05551487 0.49963382 0.6661784 -1.1380548 0.94375277 -1.1935697
-0.49963382 -0.05551487 -0.0832723 0.027757434 0.13878717 -0.36084664 -0.44411895 0.6661784
0.55514866 -1.2490846 0.11102974 -0.05551487 0.0832723 0.0 0.30533177 -1.1102973
-0.11102974 0.0832723 -0.38860407 -0.05551487 0.52739125 0.36084664 -0.027757434 -0.0832723
-0.22205947 -0.19430204 0.6661784 0.13878717 1.0270251 0.05551487 -0.24981691 -0.36084664
-0.27757433 0.6661784 0.47187638 0.44411895 -0.3330892 0.13878717 0.22205947 0.1665446
0.0 -0.74945074 -1.665446 0.47187638 0.0 -0.6939359 -0.4163615 -0.55514866
0.27757433 1.3601142 0.52739125 0.8882379 0.832723 -0.5829061 0.77720815 0.61066353
0.36084664 0.9159953 0.5829061 -0.0832723 0.0832723 0.49963382 0.13878717 -0.55514866
0.61066353 0.47187638 -0.24981691 -0.7216933 -2.553684 0.52739125 -0.4163615 0.638421
0.11102974 0.9159953 1.0547825 1.1380548 -1.3045994 0.52739125 -0.05551487 0.47187638
0.55514866 -0.6661784 -0.832723 -0.24981691 0.11102974 -0.22205947 -0.74945074 0.47187638
0.11102974 1.665446 -0.19430204 -0.52739125 0.22205947 -0.05551487 -0.11102974 -0.8049656
-0.3330892 1.2213271 -0.05551487 0.36084664 0.6661784 -0.30533177 0.0 -0.7216933
-0.0832723 -0.7216933 -1.2490846 -0.19430204 1.276842 -0.19430204 -0.30533177 0.22205947
-0.11102974 -0.6939359 0.1665446 -0.47187638 -0.6939359 -0.0832723 -0.3330892 -0.7216933
0.49963382 0.49963382 -0.4163615 -0.38860407 -0.6939359 0.0 0.1665446 -2.2761097
0.47187638 -1.1935697 -0.11102974 1.1380548 -0.22205947 -0.36084664 -0.94375277 -0.55514866
-0.5829061 -0.44411895 0.77720815 -0.38860407 -1.3323568 0.027757434 0.19430204 -0.027757434
0.52739125 -0.4163615 -1.471144 -2.1928372 0.24981691 -0.9715102 0.0832723 0.24981691
0.0832723 0.832723 -0.05551487 0.027757434 -0.027757434 -1.4989015 1.6376886 -1.665446
0.47187638 -0.8049656 -1.5821737 -0.8882379 1.665446 -1.3045994 -0.19430204 0.3330892
0.38860407 -1.2213271 -0.24981691 0.11102974 0.11102974 0.38860407 -0.027757434 0.61066353
0.9159953 0.7216933 -0.94375277 0.6939359 -0.0832723 -1.4989015 -0.8604805 -0.52739125
0.36084664 0.6661784 0.8882379 0.27757433 -0.11102974 0.52739125 0.36084664 0.36084664
-0.94375277 0.13878717 -0.99926764 0.0 -0.49963382 0.7216933 -0.47187638 0.6661784
0.832723 -0.52739125 0.27757433 0.24981691 0.027757434 -1.6099312 -0.19430204 -0.94375277

while/MatMul i1 [256, 12] scale=0.07508947 zero_point=0
00000000: 1009 13fe 050a 0300 060b 110c 1206 0606
00000010: fa09 0211 0614 fd0f 032a 00d7 0b07 1209
00000020: 0b07 0405 0b1a 090c f60a 0fa0 060c 100c
00000030: 0700 0204 0005 050c fb1a f60f 0d16 1902
00000040: be01 1803 14e1 0807 0010 ed0f fe0f 0510
00000050: fc1e 0511 f00b fdf9 fb0c fc05 f806 fa06
00000060: 1a17 04fa 04f9 07fe 08fe 0afb fbfc fa01
00000070: fdf9 00fb fff9 05fc 1509 eb01 0fff fdfd
00000080: 1008 fd0e 0500 03ff 0c00 fa0e 010d f71f
00000090: 0104 0b03 f2fe 0609 0309 000f 0d01 dd00
000000a0: f4ff 1707 fcff 07f4 0800 e30c 0302 0800
000000b0: 15fd 01f5 fbfb 060a 0902 0cde 020f fc0c
000000c0: 0710 0cfe 0100 ed05 0605 f408 f8fa fefc
000000d0: 0805 0200 fcfb 0304 0c08 0eac 0d06 0509
000000e0: 0814 0c11 0f2c fffd 08fd 05f8 db02 1905
000000f0: 06fc 09fc e008 f8ff 00fe 0004 150a ff05
1.2014315 0.6758052 1.4266999 -0.15017894 0.37544733 0.75089467 0.22526841 0.0
0.45053682 0.8259842 1.276521 0.90107363 1.3516104 0.45053682 0.45053682 0.45053682
-0.45053682 0.6758052 0.15017894 1.276521 0.45053682 1.5017893 -0.22526841 1.126342
0.22526841 3.1537578 0.0 -3.0786684 0.8259842 0.5256263 1.3516104 0.6758052
0.8259842 0.5256263 0.30035788 0.37544733 0.8259842 1.9523262 0.6758052 0.90107363
-0.75089467 0.75089467 1.126342 -7.208589 0.45053682 0.90107363 1.2014315 0.90107363
0.5256263 0.0 0.15017894 0.30035788 0.0 0.37544733 0.37544733 0.90107363
-0.37544733 1.9523262 -0.75089467 1.126342 0.9761631 1.6519684 1.8772367 0.15017894
-4.955905 0.07508947 1.8021473 0.22526841 1.5017893 -2.3277736 0.60071576 0.5256263
0.0 1.2014315 -1.4266999 1.126342 -0.15017894 1.126342 0.37544733 1.2014315
-0.30035788 2.252684 0.37544733 1.276521 -1.2014315 0.8259842 -0.22526841 -0.5256263
-0.37544733 0.90107363 -0.30035788 0.37544733 -0.60071576 0.45053682 -0.45053682 0.45053682
1.9523262 1.7270578 0.30035788 -0.45053682 0.30035788 -0.5256263 0.5256263 -0.15017894
0.60071576 -0.15017894 0.75089467 -0.37544733 -0.37544733 -0.30035788 -0.45053682 0.07508947
-0.22526841 -0.5256263 0.0 -0.37544733 -0.07508947 -0.5256263 0.37544733 -0.30035788
1.5768789 0.6758052 -1.5768789 0.07508947 1.126342 -0.07508947 -0.22526841 -0.22526841
1.2014315 0.60071576 -0.22526841 1.0512526 0.37544733 0.0 0.22526841 -0.07508947
0.90107363 0.0 -0.45053682 1.0512526 0.07508947 0.9761631 -0.6758052 2.3277736
0.07508947 0.30035788 0.8259842 0.22526841 -1.0512526 -0.15017894 0.45053682 0.6758052
0.22526841 0.6758052 0.0 1.126342 0.9761631 0.07508947 -2.6281314 0.0
-0.90107363 -0.07508947 1.7270578 0.5256263 -0.30035788 -0.07508947 0.5256263 -0.90107363
0.60071576 0.0 -2.1775947 0.90107363 0.22526841 0.15017894 0.60071576 0.0
1.5768789 -0.22526841 0.07508947 -0.8259842 -0.37544733 -0.37544733 0.45053682 0.75089467
0.6758052 0.15017894 0.90107363 -2.553042 0.15017894 1.126342 -0.30035788 0.90107363
0.5256263 1.2014315 0.90107363 -0.15017894 0.07508947 0.0 -1.4266999 0.37544733
0.45053682 0.37544733 -0.90107363 0.60071576 -0.60071576 -0.45053682 -0.15017894 -0.30035788
0.60071576 0.37544733 0.15017894 0.0 -0.30035788 -0.37544733 0.22526841 0.30035788
0.90107363 0.60071576 1.0512526 -6.3075156 0.9761631 0.45053682 0.37544733 0.6758052
0.60071576 1.5017893 0.90107363 1.276521 1.126342 3.3039367 -0.07508947 -0.22526841
0.60071576 -0.22526841 0.37544733 -0.60071576 -2.7783103 0.15017894 1.8772367 0.37544733
0.45053682 -0.30035788 0.6758052 -0.30035788 -2.402863 0.60071576 -0.60071576 -0.07508947
0.0 -0.15017894 0.0 0.30035788 1.5768789 0.75089467 -0.07508947 0.37544733
